RexRobotRetriever/MLAgents/results/mb_1/MobileBase.onnx (onnx, 75869 bytes, 10 tensors)

network_body.observation_encoder.processors.0.normalizer.running_mean f4 [9]
000000 3b e8 ab be a0 88 8d 3d e8 c1 43 3f 93 c8 1c bf
       -0.33575615 0.06910825 0.7646775 -0.6124355
000010 d0 d2 17 3d 60 38 46 bf 9a 73 67 3f 8a 80 19 bf
       0.03706628 -0.7742977 0.9041077 -0.5996176
000020 77 46 9a 40
       4.8211017

network_body.linear_encoder.seq_layers.0.weight f4 [128, 9]
000000 20 c2 8a 3f 5e 8f bc bd a7 46 3b 3f 4c 01 e1 3e
       1.0840492 -0.092070326 0.7315468 0.43946302
000010 d1 85 77 3d 1b 7d d2 3e 72 a6 19 3e d8 60 ae bc
       0.06043035 0.41111073 0.150049 -0.021286413
000020 ee 19 13 3e 0e c7 a2 3e e6 0d 1b 3d 7b 34 a9 be
       0.1436536 0.31792492 0.03785505 -0.33047852
000030 73 ae a4 be 8a eb c7 3d c2 99 0a 3f bd 34 e5 bd
       -0.32164344 0.097617224 0.54140866 -0.111917
000040 e8 94 05 bf 35 44 d8 bd 72 a2 86 be f2 7b fb bd
       -0.5218034 -0.105598845 -0.2629581 -0.122795
000050 f2 1f 48 3f 4f 59 ff 3e c6 ea b1 be a7 b6 99 be
       0.78173745 0.49872825 -0.3474943 -0.30022165
000060 62 e3 07 bf 56 88 bc be 50 e2 08 be ff 5e 84 3e
       -0.53081334 -0.36822766 -0.13367581 0.25853726
000070 fe 70 a3 be f8 e0 b1 bc e1 2f 1c 3f 59 72 db bc
       -0.31922144 -0.021713719 0.6101056 -0.026787924
000080 25 9c 56 be 2c 7d 21 bf af ca b4 3e 6f 93 9a 3e
       -0.20958002 -0.6308162 0.35310885 0.30190608
000090 15 aa 68 3d 2e cd 6f bc d2 57 05 bf 93 5a 01 bd
       0.056802828 -0.014636321 -0.5208713 -0.03158052
0000a0 04 07 5c 3f a9 bf 05 3e c6 cb 27 3f 1e bf 1e 3e
       0.85948205 0.13061394 0.6554531 0.15502593
0000b0 76 39 39 3e f5 5d e2 be ed c8 0e 3f 0b 17 2c 3e
       0.18088326 -0.4421231 0.5577534 0.16805665
0000c0 31 18 ff be 27 ca 10 bf 80 7e f0 ba 0a c3 c3 3e
       -0.49823144 -0.5655846 -0.0018348247 0.3823474
0000d0 86 df 18 3f ea ca 01 be df 67 82 bc f2 7f 9b bc
       0.5971607 -0.12675062 -0.01591867 -0.018981908
0000e0 7a 38 3b be 95 64 dc 3e 72 72 5e be 03 30 07 bf
       -0.18283263 0.43045488 -0.21723345 -0.52807635
0000f0 58 c9 28 3f 5a e6 36 3f 7b 33 88 3d ef 54 4a be
       0.65932226 0.7144524 0.06650444 -0.19758962
000100 71 6f 61 3e 50 ec 1d 3d 0e 27 c9 3e f3 59 3a 3e
       0.22015168 0.038555443 0.3928761 0.18198375
000110 77 22 3f be 64 31 80 3f 3a 5e f7 be 29 e1 ba 3e
       -0.18665491 1.0015073 -0.48314077 0.3649991
000120 73 05 67 bf 7a 81 84 3e 67 63 01 bf a1 f1 0c 3e
       -0.9024269 0.25880033 -0.505423 0.13764049
000130 2d 52 e3 3e 74 86 68 3e 65 07 09 be 01 9a c4 3e
       0.44398633 0.2270754 -0.13381727 0.38398746
000140 84 9d 88 be 25 fd 3e 3f 59 0e f2 3d 70 b7 da 3e
       -0.26682675 0.7460502 0.11819143 0.42718077
000150 0a ec 57 be 60 16 31 be 4d 73 b7 bd fa 0f 77 be
       -0.21086136 -0.17293692 -0.08957539 -0.24127188
000160 27 8e 2b 3d a2 08 6f bf 2b d3 a1 be 4f 7c bc be
       0.041883614 -0.9337255 -0.3160642 -0.3681359
000170 3c 2b 6a 3f 6f a2 19 3f be 89 f8 3e 4e be 03 bd
       0.9147222 0.6001348 0.4854259 -0.03216391
000180 9a 83 5a 3e c1 fb af 3d 08 07 30 3d 43 20 1c 3f
       0.21339265 0.0859294 0.042975456 0.6098673
000190 59 af 25 bf da a8 f5 bd 3e 4a a5 3d cd 6d 2b 3f
       -0.64720684 -0.119950965 0.08070801 0.6696442
0001a0 96 54 47 be bc b9 b8 3e 36 15 3f bf 1c af c8 be
       -0.1946586 0.36079204 -0.7464174 -0.39196098
0001b0 d7 46 99 bd 00 fa 22 3f 4f 83 38 be e8 c2 34 3d
       -0.07484215 0.6366272 -0.1801884 0.04413119
0001c0 f8 4d 65 3f 31 93 d1 be 26 f0 07 3e 7b 3f 8f 3e
       0.89572096 -0.4093261 0.13275203 0.2797812
0001d0 3b 82 21 bf a1 be 6c be 43 bd 67 3e 08 37 5c 3d
       -0.6308934 -0.23119594 0.22630791 0.05376342
0001e0 0c 53 14 bf 6e d9 82 bf 95 b3 0e 3f b2 02 41 3e
       -0.5793922 -1.0222604 0.5574277 0.18848684
0001f0 e7 5e 1a be f0 ec c5 be 00 9a 85 bc 3b 9a c3 be
       -0.15075265 -0.3865733 -0.016308784 -0.38203606
000200 30 c7 53 3e 9b 91 a3 be 08 78 1b 3f 97 a2 c9 bc
       0.20681453 -0.31947026 0.6073003 -0.024613662
000210 65 98 c8 3d 29 23 90 be 8c 7e 32 bd 7e bb ec 3e
       0.09794692 -0.28151825 -0.043577716 0.46236795
000220 08 76 54 bf cb 48 33 be 96 cc 85 3f dd 50 83 3e
       -0.829926 -0.17508237 1.045306 0.2564763
000230 40 b3 6a be 27 cb 8c 3d 3e 51 fc 3e 1f ce 90 bf
       -0.22919941 0.06874686 0.49280733 -1.1312903
000240 e2 e8 a6 bd d1 c8 0d 3e be 36 18 3f 5b 13 a9 be
       -0.081498876 0.13846137 0.5945853 -0.3302258
000250 74 b6 e5 3e fa 84 af 3e e7 7d 48 be 45 17 04 be
       0.44865763 0.3428114 -0.19579278 -0.12899502
000260 c2 21 b4 be 85 22 b1 be 4d 80 8a 3d 7c 19 81 bd
       -0.35182005 -0.3459665 0.06762753 -0.06303689
000270 ec 4b 09 3e 43 46 2d bd 6e 4e 94 3f 47 5a 77 3e
       0.13407868 -0.042303335 1.1586435 0.24155532
000280 c9 e2 d2 be 23 2b 32 bf 2a 9a fb 3e 7c 79 e9 3e
       -0.41188648 -0.6959707 0.49141055 0.45600498
000290 45 6d e1 3e 6c e5 45 3e d4 31 ea be d6 3c b1 be
       0.4402868 0.19325799 -0.4574114 -0.34616727
0002a0 4b 22 20 3e 3b 2e 28 bf 9e 95 d6 be 85 a6 0d 3f
       0.15638082 -0.6569554 -0.41911024 0.55332214
0002b0 49 32 7b be ad 56 19 be b4 07 11 3f 45 58 2c 3d
       -0.24530901 -0.1497447 0.5665238 0.042076368
0002c0 48 11 75 be 60 63 96 be 61 22 e0 be e3 04 b1 3e
       -0.23932374 -0.29372692 -0.4377623 0.3457404
0002d0 27 e3 35 3f 54 5b e4 3e 6c b4 31 bf 44 97 25 bf
       0.7104973 0.44600928 -0.69415927 -0.6468394
0002e0 8b b5 3a be b2 93 01 bf 51 f1 8d 3c e7 d3 35 bf
       -0.18233316 -0.5061599 0.017326983 -0.7102646
0002f0 a8 ad 56 be 3d 43 88 3e 38 a1 8a 3d dc cc db 3e
       -0.20964682 0.266138 0.06769031 0.42929733
000300 0a 26 91 3e bd fb 13 3e a8 57 5d 3e 4c c5 22 bf
       0.28349334 0.144515 0.2161547 -0.635823
000310 f7 42 27 be 3b 27 ac 3e 48 17 85 3e cb 23 b7 3e
       -0.16334139 0.3362368 0.25994325 0.35769495
000320 ce 83 35 be ad 9f 57 3e 03 77 02 3f ef b8 1e 3f
       -0.17726061 0.21057005 0.5096285 0.62000936
000330 94 84 7e be f6 7d c2 bd 78 97 6b 3f e1 07 19 bf
       -0.24855262 -0.094966814 0.92028 -0.5977765
000340 23 cd 85 3e f5 bc 30 3f 0d 9e d4 3e 85 98 05 3f
       0.2613307 0.69038326 0.41526833 0.5218585
000350 e5 12 2a 3d 47 55 3f 3e 74 6c 31 3e e0 32 14 be
       0.041521925 0.18684874 0.17326528 -0.14472532
000360 25 c3 17 bf 50 1a 9e be 1f 7c 00 bf 34 48 15 bd
       -0.5928214 -0.3087945 -0.50189394 -0.03644581
000370 26 ce ed be 43 5e 1b 3f 1e 43 4f 3e a4 27 c1 3d
       -0.4644634 0.60690707 0.20240447 0.09431389
000380 df 6c 68 3f a8 d9 ab 3e f1 fa c3 3e ca 17 9b 3e
       0.90791124 0.33564496 0.3827739 0.30291587
000390 b2 99 64 3e 74 7f c6 3d f3 c1 fd 3d 2d b1 58 be
       0.22324255 0.096922785 0.123905085 -0.21161337
0003a0 b8 78 10 3e 69 21 33 bd b5 7b 4f 3e f4 62 f5 be
       0.1410855 -0.043733034 0.20262034 -0.47927058
0003b0 b1 71 16 3f b5 9d 8c bf 63 23 9a bd 2b 0b 8c 3e
       0.5876723 -1.0985628 -0.07526281 0.2735227
0003c0 6f 10 37 3f 56 95 04 3e 15 82 c3 3e ce b0 11 3f
       0.7150945 0.12947592 0.38185182 0.5691041
0003d0 52 5c ce bd 27 69 d2 be c4 f8 00 bf 27 70 39 3e
       -0.100762025 -0.4109585 -0.50379586 0.18109189
0003e0 f8 8e f7 be 78 6b 1a bf 19 9d 9f be 56 55 9a 3e
       -0.48351264 -0.60320234 -0.31174543 0.3014323
0003f0 13 42 06 3f b3 63 bf 3e 8b 29 35 be 61 0f ee 3d
       0.5244457 0.37380752 -0.17691629 0.11624027

network_body.linear_encoder.seq_layers.0.bias f4 [128]
000000 bc 9b 95 bd a3 39 a0 3d fc 7d bd 3d 82 cf 05 bd
       -0.073050946 0.07823493 0.09252545 -0.032668598
000010 b4 ef 95 3d bc bf da bd 78 fa b2 bd 16 7e 11 3e
       0.0732111 -0.10681102 -0.087391794 0.14208254
000020 57 44 fc bd fe f4 c3 3c f3 47 ed 3d 99 d9 33 bd
       -0.12317722 0.023920532 0.11585989 -0.04390869
000030 7c f2 ce bd 5b 3d 27 3d 71 7b b2 3d b0 ca 5f bb
       -0.10104844 0.040829998 0.08714951 -0.003414791
000040 47 e0 ee bd a0 97 05 3d fa 2a b2 3d 44 d5 af bd
       -0.11663871 0.032615304 0.086996034 -0.08585599
000050 c7 b5 9d 3e 53 cd 07 be 28 60 ef bc 0b 87 47 bd
       0.30802748 -0.13261919 -0.029220656 -0.04871277
000060 fa f9 c5 3d 5d 69 91 bd a9 84 db 3c 3b 10 25 3c
       0.0966682 -0.071001746 0.026796656 0.01007467
000070 5f 09 a9 bc dd 5a d5 bd 2e a5 b6 3c 7b c4 19 3e
       -0.020634351 -0.104177214 0.02229556 0.15016358
000080 98 c2 86 bc 96 e7 98 ba 38 01 45 bd 52 31 56 bd
       -0.016450211 -0.0011665698 -0.048096865 -0.05229313
000090 d1 a5 50 bd 86 3a 32 be c1 a4 2d 3d f6 0f 7e 3d
       -0.050939385 -0.17405137 0.04239345 0.06202694
0000a0 1f 21 84 bd 10 de 53 be 99 56 ac bd 75 6d 87 bd
       -0.0645163 -0.20690179 -0.08414955 -0.06612674
0000b0 4f 91 c2 3c 27 2d 94 bd 8d ef 89 bd b9 74 bc 3d
       0.02375093 -0.072351746 -0.06735144 0.092019506
0000c0 59 84 56 3d 59 e6 6f bd 3e 5b 11 3d b6 be fc bd
       0.05237231 -0.058569286 0.035487406 -0.12341063
0000d0 e9 51 fb bd 03 82 34 3e cc 2c 6e bd 9c 90 1a be
       -0.122714825 0.1762772 -0.05814819 -0.15094227
0000e0 61 13 a7 3d da e1 19 be a4 5c 64 3e 10 62 05 be
       0.08157993 -0.15027562 0.22300965 -0.13025689
0000f0 77 67 61 bd 46 e8 58 bd ca 85 a2 3d 98 39 ea bd
       -0.055030312 -0.05295589 0.079356745 -0.114367664
000100 1d ad 86 bc 55 f6 a4 3d 29 c8 80 bd 9f d9 06 3e
       -0.016439969 0.080547966 -0.062881775 0.13168953
000110 23 bb 70 bd 57 da 1d 3d 4b e3 8c 3d a4 7c 09 be
       -0.058772217 0.038538303 0.0687929 -0.13426453
000120 19 52 33 be e9 46 f9 3c 37 e3 f6 bd 63 33 6b bc
       -0.17511787 0.03042932 -0.120550565 -0.014355513
000130 68 5e 9b 3c 77 b4 0a 3e 1d 39 5a bd 08 85 1e 3e
       0.018965915 0.13545404 -0.053277124 0.15480435
000140 e0 7c d2 bd b6 3e d1 3c 86 b2 7a be d5 41 09 be
       -0.10277724 0.025542598 -0.24482164 -0.13404019
000150 88 ad 8e 3c e6 f3 0d be b1 cd c3 bc 2c 59 e4 bd
       0.01741673 -0.13862571 -0.023901792 -0.11149821
000160 5f 96 d3 3d bf 6b 4a 3e 77 f8 97 bb 2d d9 fb bd
       0.103314154 0.19767664 -0.0046377736 -0.12297282
000170 c9 e2 17 be 73 fc 10 bd 00 fe c0 bc b4 db 27 3d
       -0.14832605 -0.035397004 -0.023558617 0.04098101
000180 ae 67 28 3d dd 8d c7 3d 40 f3 a0 bc 49 91 b9 3b
       0.0411145 0.09743855 -0.01964724 0.0056630713
000190 4a 3b 0a bd 7d 4e 5f bd 80 a4 34 bd b4 ad 0b 3e
       -0.03374795 -0.05451821 -0.044102192 0.13640481
0001a0 48 d4 a1 bd cd e7 c1 be c7 c7 f4 3c 23 fd 0e be
       -0.079018176 -0.37872162 0.029880418 -0.13963751
0001b0 2c 82 31 3c 07 56 d7 bc c1 48 4a 3e 6a cd 28 3e
       0.010834258 -0.026286138 0.19754316 0.16484609
0001c0 ea e4 70 3e b2 42 91 3c 5b 5e ab 3d ab e0 d4 3d
       0.23524824 0.017731998 0.08367606 0.103944145
0001d0 47 4f 02 3e ef 85 14 bd 08 66 8c bc a7 d4 98 3e
       0.12725554 -0.03626054 -0.017138496 0.2984974
0001e0 91 5a e5 bc d2 13 b3 bd 43 db 09 be ad 6a 92 3d
       -0.027997287 -0.08744015 -0.13462548 0.07149253
0001f0 41 6c 34 bd 9f cf 35 3e f5 ba e8 3c d9 84 e3 3c
       -0.04404855 0.17754982 0.02840946 0.027773308

network_body.linear_encoder.seq_layers.2.weight f4 [128, 128]
000000 38 ae 98 bd 4b 4c 39 be ad 3a 61 be 67 c4 45 be
       -0.074551046 -0.1809551 -0.2199504 -0.19313203
000010 98 2e fe 3d 09 46 b5 bd d5 33 49 3d 5f 32 99 bc
       0.12411231 -0.08851249 0.049121697 -0.018700777
000020 23 59 18 3e 59 9b 12 bd 9a e1 6d bd e2 22 0c bf
       0.14877753 -0.035792682 -0.05807648 -0.54740727
000030 02 e4 90 3e d4 e3 d3 bd c8 d1 94 bd b4 d2 00 bd
       0.28298956 -0.10346189 -0.07266575 -0.031450942
000040 25 13 41 3d 52 bf e9 ba d1 6a fc be a7 b9 db be
       0.0471374 -0.0017833507 -0.49300244 -0.4291508
000050 96 fd 49 be e7 88 9f be 25 ed 79 bc de 9b b0 3d
       -0.19725642 -0.31159136 -0.015254294 0.08623479
000060 38 ee 2e 3d c3 bb 06 3e dd dd e9 3d 56 7c 02 bb
       0.04270765 0.13157563 0.1141927 -0.0019910536
000070 a3 2f a8 bd 90 b1 37 3e 3e 95 a6 be ac 25 54 bd
       -0.08212211 0.17938828 -0.32535738 -0.05179374
000080 2c b6 92 bd ff b7 b5 bd 6d 19 49 3e d2 df da bd
       -0.07163653 -0.08872985 0.19638605 -0.106872216
000090 90 2f 01 be b5 db 01 bc 6c 2b a0 3c fd 11 63 be
       -0.126158 -0.007925917 0.019551955 -0.2217483
0000a0 78 85 43 be 7a 8f c6 3c 48 8e 12 be 5d 9d 4c 3e
       -0.19093883 0.024238337 -0.14312088 0.19981904
0000b0 0a 88 d4 be c7 e4 7c bb 6b 08 6c 3e 42 a1 be be
       -0.4151004 -0.003858851 0.23050086 -0.37232405
0000c0 d1 55 76 bd c6 44 5f 3d d7 d6 62 3d c1 2b 21 be
       -0.060140435 0.054508947 0.05538067 -0.15739347
0000d0 62 e9 61 3e 34 13 8b bd 49 96 28 be 4d 89 ff bb
       0.22061685 -0.06790772 -0.16463579 -0.00779835
0000e0 c9 34 2a be 2f c4 01 3d 47 8e ae be e0 93 72 bc
       -0.16621698 0.031681236 -0.34092924 -0.014805764
0000f0 dd 0c b2 3c 43 39 47 3e f3 47 09 bd b1 14 99 3e
       0.02173465 0.19455437 -0.03351588 0.298986
000100 50 7e 3a be 62 b4 b3 bb d0 f7 43 3d 82 3b 75 3d
       -0.18212247 -0.00548415 0.047843754 0.059871204
000110 d6 a0 d8 bb eb 7d 47 bd a5 86 28 be 18 e9 94 3d
       -0.00661097 -0.04870407 -0.16457613 0.072710216
000120 92 95 d2 3c ce f3 39 be 29 0d 36 be 19 48 41 3b
       0.025706086 -0.1815941 -0.17778458 0.0029492436
000130 21 56 26 be bc 57 75 be 20 50 03 bc 90 1b 20 bd
       -0.16243793 -0.2395925 -0.008014709 -0.039088786
000140 ec 3b 59 bb ff 06 c3 bd 89 85 6e 3e e5 85 56 bd
       -0.0033147288 -0.09522819 0.23293127 -0.052373786
000150 46 ee ec bc 10 61 9e 3d 40 8a cd bd d2 02 3b bd
       -0.028922211 0.07733357 -0.10036135 -0.045656987
000160 9c c6 df bd 7a 0f d8 bb 2f fb 07 3e 9b c1 03 be
       -0.109265536 -0.006593642 0.13279413 -0.12866823
000170 ac 00 1c 3e 08 ca 47 3e ec ec 21 be 46 ee 9b bd
       0.15234631 0.19510663 -0.15813035 -0.076138064
000180 e8 d6 ea be 92 51 8a be 88 2e 0e 3d d0 85 9f bc
       -0.45867085 -0.27015358 0.034712344 -0.019472986
000190 27 b9 80 3d 17 ec 24 be b6 35 22 bd 74 52 57 bd
       0.06285315 -0.16105686 -0.039602004 -0.052568868
0001a0 03 8c ea 3d 7d d0 ad 3d 9e 5f ae bc 60 a6 1c be
       0.11452486 0.084870316 -0.021285828 -0.15297842
0001b0 20 42 c0 bd 6c 0b 2b 3e 2a 68 85 bb 0e 72 f7 3d
       -0.09387612 0.16703576 -0.004071255 0.12082301
0001c0 4d 4a e5 3d 9a 4d 1e 3d d7 96 c1 be 10 8a 22 3d
       0.111958124 0.038648225 -0.37810394 0.039682448
0001d0 53 f0 62 3b 25 68 28 bd 25 fd 7e bd f4 d6 80 be
       0.0034628108 -0.041114945 -0.062253136 -0.25163996
0001e0 92 2a d8 bd 51 2a 0a be 98 f6 b6 3d 94 20 e1 3d
       -0.10554995 -0.13492705 0.08933753 0.10992542
0001f0 11 ab 41 3d 13 02 8a be 98 ff 95 bd 9a 96 db 3d
       0.047282282 -0.26954708 -0.07324141 0.10722084
000200 b1 54 2e bd 45 04 02 be 91 b3 13 be fe a4 34 3e
       -0.042561237 -0.12696941 -0.14423968 0.17641065
000210 b1 8e 1f 3e d9 a0 45 3e 82 f8 b8 3d 65 e2 fb 3c
       0.15581776 0.1929964 0.09031774 0.030747602
000220 8f 7b 32 3d b6 44 06 3e e3 29 0d be d7 1f ab be
       0.043574866 0.13112149 -0.1378551 -0.3342273
000230 2d 42 4c 3c 60 56 58 3d 64 fd de bc 1c af a6 3d
       0.012466949 0.05281675 -0.027220435 0.08138868
000240 7f 72 05 bd 20 5e 40 bc 52 d6 73 3d 6e 62 1f 3d
       -0.032579895 -0.011741191 0.059530564 0.03891223
000250 b4 95 2d 3c 1c 82 b9 bd 72 89 21 be df 0c 96 3d
       0.010594774 -0.090580195 -0.15775087 0.07326674
000260 91 93 34 bc 28 c6 10 be 95 03 dd bd 96 84 2b 3e
       -0.011021511 -0.1413809 -0.10791699 0.16749796
000270 1d 26 3a bb 07 26 61 3e 8d e1 44 be 56 33 a8 3d
       -0.0028404065 0.21987163 -0.19226666 0.082129166
000280 c1 f1 f7 3d 7d 90 6c 3d a4 f5 23 3e a7 db 15 3e
       0.12106658 0.057754982 0.16011673 0.14634572
000290 53 ac 83 3d c5 e0 aa 3d 4f 7a 37 bd 79 85 65 be
       0.064293526 0.08343653 -0.044794377 -0.22414197
0002a0 a3 fc 53 3d 0c ea ce 3d 2f b9 be 3d 6d 3c 14 be
       0.051754605 0.10103235 0.09312665 -0.14476176
0002b0 f3 f4 56 3c de 87 00 3e 94 a8 3f be c2 b3 b9 bd
       0.013119924 0.12551829 -0.18716651 -0.09067489
0002c0 79 7d 25 3d b1 0e 03 be 85 c0 18 3e cd dd 04 3e
       0.040402863 -0.12798573 0.1491719 0.12975235
0002d0 d4 ee 56 bc 25 0b da bc 5e 1c 0e be 59 5b fe 3c
       -0.0131184645 -0.026616642 -0.13878009 0.031049417
0002e0 b7 55 80 be df d0 13 3e 94 e3 fb 3c 69 75 fd 3d
       -0.25065395 0.14435147 0.030748166 0.1237591
0002f0 3e 0e a9 bd cf 05 3d bd c0 3c 1c 3e 44 27 f6 3c
       -0.082546696 -0.046148118 0.1525755 0.03004802
000300 10 2e dc bd 52 6e 67 bd d7 76 52 3d 11 09 3c be
       -0.10750973 -0.056501694 0.051382866 -0.18362834
000310 57 0a 7e be a8 a1 1e be 1d 47 92 bc 4c 2c 33 3e
       -0.24808632 -0.15491354 -0.017856175 0.17497367
000320 a6 61 fb 3d 66 79 34 be 4d 24 9f 3d c1 3e 04 be
       0.12274484 -0.17624435 0.07770596 -0.12914564
000330 6f aa bf bb b7 c3 6c be 6a e1 3d be c7 1f d1 3d
       -0.0058491747 -0.23121534 -0.1854302 0.10211139
000340 e5 b6 9c 3c 1b c3 2c bd 3c 41 8a bc 8f 27 3b 3e
       0.01913018 -0.042178255 -0.01687681 0.18276809
000350 cd 4b cb bd 94 dc 11 3e ec 19 63 bb ca 10 fc bd
       -0.09926567 0.142443 -0.0034652902 -0.1230789
000360 ab 79 ad 3d 8e 14 06 be db a9 4f be 05 a8 19 bc
       0.08470472 -0.13093778 -0.20279638 -0.009378438
000370 0d f2 f7 bd f0 9a cd b8 5f 3c 16 bd df ab d7 bd
       -0.121067144 -9.804021e-05 -0.036678668 -0.10530829
000380 f9 ae 6a bc 84 95 32 bd c5 e0 02 bc 9b b5 1f 3e
       -0.014323943 -0.04359962 -0.00798816 0.1559662
000390 aa 51 b4 3d fb ed 07 3d 82 8c 74 be de 10 2e 3e
       0.08804639 0.03318594 -0.23881724 0.16998622
0003a0 1a 7a a0 3b 81 8b 2b 3e e1 31 dc bc f1 f3 af 3c
       0.004897368 0.16752435 -0.026879253 0.021478625
0003b0 ad 59 34 bd a7 f6 0d 3d df 00 f6 bd 32 da 14 be
       -0.044030834 0.034659054 -0.12011885 -0.1453636
0003c0 ba a1 e2 3d 3c 79 8e bd 1b 09 a8 bd 9e 70 57 3e
       0.11066003 -0.06956717 -0.08204862 0.21039054
0003d0 47 38 e5 3d 1b 38 ea be 38 f4 17 bc 49 c2 d9 bc
       0.11192375 -0.4574593 -0.009274535 -0.0265819
0003e0 1d 9f d7 be b0 f7 fc 3d 23 44 57 be a6 48 b2 3d
       -0.4211358 0.1235193 -0.21022086 0.08705263
0003f0 32 19 46 3e d7 03 38 be bc 90 3d be 67 8e 19 be
       0.19345549 -0.17970215 -0.18512243 -0.14995728

network_body.linear_encoder.seq_layers.2.bias f4 [128]
000000 47 75 20 be 63 c1 a1 bd 3f 47 70 bd ee 63 a2 bd
       -0.15669738 -0.07898214 -0.058661696 -0.07929216
000010 e7 ed d1 3d 8e 12 22 bd a9 3f 9e bd f5 7c e1 bb
       0.102504544 -0.039568476 -0.07726986 -0.006881351
000020 42 5d de bd 36 06 28 bd 1b ff 35 bc 26 ae 33 bd
       -0.10857631 -0.04102155 -0.011108185 -0.043867253
000030 be ad a1 3d d3 9b 01 3e 2f 32 b9 bc 29 81 21 bb
       0.07894467 0.12657098 -0.022606937 -0.0024643636
000040 cd 43 8b bd e5 ce 14 be 4b 9d 82 bd 32 9f 39 3d
       -0.06800041 -0.14532049 -0.063776575 0.045317836
000050 52 29 c3 bd 16 b7 a6 bd ce e8 68 3d ad 64 99 bd
       -0.095293656 -0.081403896 0.056862645 -0.074899055
000060 8e 44 a4 bd a7 28 e2 bb 33 2d 08 be 37 d3 a5 3d
       -0.08020888 -0.006901819 -0.13298492 0.08096927
000070 f6 4e 8e bc 6a ba b5 bd 62 7a 0c be f9 39 12 3d
       -0.017371636 -0.08873446 -0.1371856 0.03569982
000080 4d 5d 5f 3c a4 95 2a be 06 52 89 bc 9d 43 ef bd
       0.0136330845 -0.16658646 -0.016762745 -0.11682818
000090 ff d4 05 be b7 aa 73 3d d4 2b 9a bd 87 a9 04 3d
       -0.13069533 0.05948898 -0.07527891 0.032388236
0000a0 6b e5 13 3c 58 2a 73 3c ef 1a 95 bd 6f ca ae bb
       0.0090268655 0.0148416385 -0.07280528 -0.0053341906
0000b0 cb f6 89 bc ca 36 23 bd 93 af 18 be 1e 78 ee bd
       -0.016841313 -0.039847173 -0.14910726 -0.11644004
0000c0 b4 27 6b b8 3e 43 8c 3d a0 c3 0e 3d 9e 9f b6 bd
       -5.6065343e-05 0.06848763 0.03485453 -0.08917163
0000d0 93 e3 31 be d1 4b 2e be e6 19 58 3d e7 01 bb bd
       -0.17371969 -0.17021109 0.052759074 -0.09131222
0000e0 b3 03 93 bc 1a 17 2f bd 72 7e 0f be 25 62 95 ba
       -0.0179461 -0.04274664 -0.14013079 -0.0011397047
0000f0 f1 4a e9 3d 25 71 ca bb 57 7f bc bd 86 4d 1e be
       0.11391247 -0.0061780387 -0.09203976 -0.1545926
000100 d4 12 a1 bd a6 1f 84 bd 76 ee 33 be 4e 8a ed bd
       -0.07864919 -0.06451349 -0.17571434 -0.11598645
000110 78 2e 00 3e 7d 3f 00 be f2 ed b5 bc 76 d3 9b bc
       0.12517726 -0.12524219 -0.022208188 -0.01902173
000120 69 e7 dc 3b 1f 68 07 be a4 84 af bd d5 c6 b4 bc
       0.0067414534 -0.13223313 -0.08570221 -0.022067467
000130 7c c0 1f 3d 6a 14 2b bd e2 d2 81 3d 2a 4a b8 bd
       0.039001927 -0.041767515 0.06339051 -0.08998521
000140 32 9b 3a 3d 72 c9 98 3c 8e 4f d5 bd 47 17 b0 3d
       0.045558162 0.018650744 -0.104155645 0.0859819
000150 a3 81 f0 bd 2d 41 bf bd 17 d9 0c be 65 5e ce bc
       -0.11743476 -0.09338603 -0.13754688 -0.025191495
000160 e4 ed b1 bc f7 55 9a bd ca da d4 bd b2 04 16 bc
       -0.02171988 -0.07535928 -0.10393293 -0.009156393
000170 89 4c 70 be 73 93 94 bc e6 ec 5d bb 2b b8 44 be
       -0.23466696 -0.018136716 -0.0033863126 -0.1921088
000180 99 47 8a 3c c9 85 79 3c f8 33 09 3d ec e5 c1 bc
       0.016879844 0.015229651 0.033496827 -0.023669206
000190 9e d6 e9 bd 16 85 57 bd 90 33 9d 3d 6a 70 c2 3d
       -0.11417888 -0.052617155 0.076758504 0.094940975
0001a0 be ae 52 be 8d c7 40 bd ee 5e e1 3d 5f 01 03 be
       -0.20574471 -0.047065306 0.110044345 -0.12793492
0001b0 f4 18 d4 bd 6e 74 c0 3c 72 71 04 3c 6d 25 8b bc
       -0.10356322 0.023493018 0.008083688 -0.01698562
0001c0 2d af 46 bd a2 a8 5c 3d 5a 87 78 be 27 89 7f bd
       -0.048506904 0.05387176 -0.24270383 -0.062386658
0001d0 01 77 93 bd a4 59 b3 3d 08 d9 52 3d 04 96 86 bd
       -0.072004326 0.08757332 0.05147651 -0.06571582
0001e0 2b 47 dc bd ba a4 62 bd 24 27 a8 3c f4 4f 2f 3c
       -0.10755762 -0.055332877 0.020526476 0.010700215
0001f0 2c 6d fa bd d6 49 63 3c 49 cc 3b 3d ce 30 46 3d
       -0.12227854 0.013872584 0.04584912 0.048386388

action_model._continuous_distribution.mu.weight f4 [2, 128]
000000 a1 cb fa bd fc fd cb bd b6 be 55 3d 2e 9c 98 be
       -0.122458704 -0.09960553 0.05218383 -0.29806656
000010 8b ee 49 3d fc 0f 76 3b c5 c5 ff be 15 9a ad bd
       0.049299758 0.0037546149 -0.49955574 -0.084766544
000020 dc 0d ca bb 19 ec 80 bd 78 f1 01 3d 63 2b 7b bc
       -0.006166203 -0.06295032 0.031724423 -0.015330168
000030 40 d2 96 bc 25 e3 58 3d 87 bf 8f 3e fa 1c 3f bc
       -0.018410802 0.052950997 0.2807581 -0.011664623
000040 6c f5 c2 3c 2b 60 cc bd 29 1a c5 3d 31 5e 1f bd
       0.023798667 -0.0997928 0.0962413 -0.038908187
000050 eb be 6e bd aa eb 84 bd 7a ec 18 be 56 8c ac 3d
       -0.058287542 -0.06490262 -0.14933959 0.084252045
000060 84 41 71 3e 8f 6e 58 be 94 b2 dc 3d 48 aa 3b bd
       0.23560148 -0.21135925 0.107762486 -0.04581669
000070 71 e7 dd bd 95 5b 8e bd c2 af 82 3d ca 1a 29 bd
       -0.108351596 -0.06951062 0.063811794 -0.041285314
000080 7d 79 46 3b ef c1 9a 3e be e8 f3 bd ab 47 0e bc
       0.0030284815 0.30226085 -0.119096264 -0.008684079
000090 5c df 95 3e fe 9c e9 bc 34 a1 b8 3d 41 2c 83 bb
       0.29271972 -0.028517243 0.09015122 -0.004003078
0000a0 02 49 71 bd 59 71 18 be 00 35 96 3d d3 75 3c 3e
       -0.058907516 -0.14886989 0.07334328 0.18404321
0000b0 0b 39 c8 bd f5 cd 02 be 09 b2 98 3d b2 31 bb bc
       -0.09776505 -0.12773879 0.074558325 -0.022850845
0000c0 90 06 15 be 2d a7 b6 bd ea 45 13 be f3 9d 15 3d
       -0.14553285 -0.08918605 -0.14382139 0.036527585
0000d0 69 bc e3 be e2 e7 1b be 5c 04 b0 3c 67 c2 1e 3d
       -0.44479683 -0.15225175 0.021486454 0.038759615
0000e0 87 fe 04 3e 78 27 bf 3d 1c 27 14 be 7a 21 00 be
       0.1298772 0.093337 -0.14468044 -0.1251277
0000f0 b3 4b 0f bd 02 df 12 be 91 4b 01 3d 52 77 6c 3e
       -0.0349843 -0.14342883 0.031566206 0.23092392
000100 c8 8a 86 3e 18 09 1e be bb 84 88 bd 20 c6 a1 bd
       0.26277757 -0.15433156 -0.06665941 -0.078991175
000110 03 96 ba 3d c4 e1 b3 3d 91 58 29 bd cb 8e 0f bd
       0.09110644 0.08783296 -0.04134423 -0.035048287
000120 a6 70 b3 39 98 c0 a9 bb b3 3d ab be ae 6d 5d 3c
       0.0003422547 -0.0051804297 -0.3344551 0.013514919
000130 be 3c a2 bd 7c 5d 96 3c 93 19 15 bb 04 81 97 bd
       -0.07921742 0.018355124 -0.002275084 -0.07397655
000140 b4 e4 0a bc cb 02 90 be 64 9b 38 3e 29 5b d8 bd
       -0.008477379 -0.2812713 0.18028027 -0.105642624
000150 1c 94 41 be 55 ac d5 3c 6c 0e 17 3e 46 4b bd bd
       -0.18904155 0.02608315 0.14751595 -0.09242873
000160 8f b7 ba 3c 4a 08 01 bd 7e f1 0d 3d 3b 8c 1f 3d
       0.022792606 -0.031502046 0.034654133 0.038952094
000170 d3 f0 be be f8 1b 59 be 25 b0 59 3d b7 3e a3 3e
       -0.3729311 -0.21202075 0.0531465 0.31883785
000180 1d cc ba 3c 1a 87 3f bc 4d 7b 0f be be 58 b7 3d
       0.022802407 -0.011689926 -0.1401188 0.08952473
000190 20 ff 16 3e d7 ff 1a bd ac d5 7d bd dc 6f 2b 3d
       0.1474576 -0.037841644 -0.06197135 0.041854724
0001a0 7c 38 28 be 90 c9 bf bd 7f 57 5f bc ff 22 ea bd
       -0.16427797 -0.09364617 -0.013631701 -0.11432456
0001b0 00 b2 64 3e 6e 5b 69 3c 48 b3 1e 3d 6b 66 c3 bd
       0.22333527 0.01424299 0.038745195 -0.09541019
0001c0 d9 f5 37 be 16 cd 5f 3d 0c 5d 90 3e 54 e9 80 3d
       -0.17964877 0.054638945 0.2819599 0.06294504
0001d0 a3 06 61 bd 98 74 45 3d 25 58 91 3b ca 02 82 3e
       -0.05493797 0.048206896 0.0044355565 0.25392753
0001e0 34 dd 6c bd 58 2a 8d 3d 3a e7 5b 3d f4 8e ce bd
       -0.057828143 0.06892842 0.05368731 -0.1008586
0001f0 95 bc 0a 3e 28 7d 61 3c 1b e5 51 3d ce bd e3 3b
       0.13548501 0.01376275 0.051243883 0.0069501167
000200 df ef 82 be 92 85 e9 bc bf 7f 41 3e 50 df 77 bd
       -0.25573632 -0.028506074 0.18896388 -0.0605157
000210 81 73 03 bd 67 43 73 be 99 56 c6 3d f9 89 29 be
       -0.032092575 -0.2375618 0.09684486 -0.16556539
000220 ff 5f 76 3e 7e 6e c0 be bc e9 10 be 0b 51 0e 3d
       0.24060057 -0.375843 -0.14151663 0.034745257
000230 41 5f 80 bc 97 4c 18 be 4f af 87 3c fd 54 c9 ba
       -0.01567042 -0.14872967 0.016563086 -0.0015360411
000240 61 25 80 3e 3a 59 8b 3d 38 e7 d8 3e 3a 89 1d 3e
       0.25028518 0.06804128 0.42363906 0.15384379
000250 96 7a 81 3e 20 d2 c4 3d c8 98 f6 bc ba ff 9c be
       0.25288838 0.09610391 -0.030102149 -0.30663854
000260 ae db 2d bd 5d 0a 26 3e 71 fc 34 bd 3a 85 a4 3c
       -0.04244583 0.16214891 -0.04418606 0.020083059
000270 20 b7 eb 3d 96 b2 c2 bd 85 3a 66 3e 89 7d a2 3b
       0.11509538 -0.09506719 0.22483261 0.0049588126
000280 12 26 ae 3b 2b fc 07 bc 03 c5 5b 3c 92 b7 a7 3e
       0.005314597 -0.008299868 0.0134136705 0.3275724
000290 32 62 97 3e 65 28 52 bd c9 65 9f be 92 39 15 bc
       0.29567105 -0.051308054 -0.31132343 -0.009107964
0002a0 12 ce a2 be 64 f2 58 3d 05 55 93 3e d2 d2 92 be
       -0.31797844 0.052965537 0.28775802 -0.28676468
0002b0 b6 ef e6 3c b6 2d 7b be 14 ee 85 3d 1f 22 53 bc
       0.028190475 -0.24529156 0.065395504 -0.012886553
0002c0 11 ab dd 3c d8 a1 03 be 8b 1c 90 bb 85 d3 b7 bd
       0.02705911 -0.12854707 -0.004397934 -0.08975891
0002d0 10 a6 e9 bc 7f f1 83 be 97 5c ef bc f2 be 02 3e
       -0.028521568 -0.25770184 -0.029218955 0.12768152
0002e0 d9 a1 3d 3d 64 26 0e 3e 4d 3e 6a be a7 a4 86 3c
       0.046296928 0.13881832 -0.22875328 0.016435934
0002f0 83 aa 80 bd 70 69 d4 bd 2a 96 92 bd 96 06 37 be
       -0.062825225 -0.10371673 -0.07157548 -0.17873606
000300 d2 3d 34 bd a8 89 72 be d8 3b df 3d e4 7b 6b 3e
       -0.04400427 -0.23685324 0.10900086 0.2299648
000310 84 b1 5e 3c 88 ad 87 be cd 8e 2c 3e b3 78 91 3e
       0.013592128 -0.2649958 0.16851349 0.284124
000320 66 03 3b bc 2d 0d 09 3e 72 86 c4 3d 7b de 9c be
       -0.0114143845 0.13383932 0.09595956 -0.3063849
000330 8e 17 b2 3d a4 e3 24 3a a3 1d 34 bd fa bc 87 3c
       0.08695899 0.00062900246 -0.043973576 0.016569603
000340 d3 d1 d6 bd 97 c1 63 3e 2c 27 da bd 64 de 1a be
       -0.104892395 0.22241817 -0.10652003 -0.15123898
000350 82 6e 94 3c a1 fc 0a be df 44 72 bd fd 50 94 bd
       0.0181191 -0.13572933 -0.05914771 -0.0724201
000360 40 57 60 3c 16 5a 57 bb c1 c2 93 bc 33 9a 80 be
       0.013692677 -0.0032860092 -0.018037202 -0.25117645
000370 39 37 99 be 20 22 24 be ec 8c 1a be 81 5e 4f bc
       -0.29924944 -0.16028643 -0.1509282 -0.012656809
000380 8a 1f e9 bb 02 ae 2b be de f2 25 be 26 5b 7e be
       -0.0071143555 -0.16765597 -0.16205928 -0.24839458
000390 e7 00 3d 3e dd 04 e3 3d 05 19 d0 bd d5 04 07 3d
       0.18457375 0.11084912 -0.10161022 0.032963593
0003a0 4b 0d cb be df 32 24 be d4 79 05 be 54 45 3f 3e
       -0.3965858 -0.16035031 -0.13034755 0.1867879
0003b0 7a 80 75 3d 59 da ca 3a 2e 82 aa bd ed ab db 3d
       0.059936978 0.001547645 -0.08325611 0.107261516
0003c0 2f 14 9b bd 81 ae 90 bd e8 8b 84 be 07 eb 07 be
       -0.07572209 -0.07064534 -0.2588799 -0.1327325
0003d0 57 3a cb bc 6b a0 ef bd 80 50 da bb 3d e0 6e bd
       -0.024808092 -0.11700519 -0.0066624284 -0.05831932
0003e0 ce 40 75 ba 91 33 2e 3d 0e b6 18 bd df c2 4c be
       -0.0009355665 0.042529646 -0.037282996 -0.19996212
0003f0 e2 0d c7 be 01 be e3 bd bd da 51 bc 34 95 04 3c
       -0.3887778 -0.11120225 -0.012808499 0.008092213

action_model._continuous_distribution.mu.bias f4 [2]
000000 f9 31 22 bc a6 e6 0b 3c
       -0.00989961 0.008538878

action_model._continuous_distribution.log_sigma.weight f4 [2, 128]
000000 7d 56 97 3d f5 51 c8 3d 57 e1 d7 bc 51 6c 15 3d
       0.07389543 0.09781257 -0.026352568 0.03648025
000010 b1 af 18 be 36 89 78 3c 9a 8a d2 3d bf 85 18 bd
       -0.14910771 0.015169432 0.102803424 -0.037236925
000020 0b c2 ab 3c 58 2d 70 3d 23 71 36 bd 08 9b b9 bc
       0.02096655 0.058636993 -0.04454149 -0.022656932
000030 2f 42 fb bd 82 e0 0d be cd 0a cf 3d 81 55 bd bd
       -0.12268483 -0.13855174 0.10109482 -0.09244824
000040 9e 4e 2b 3c c8 b9 26 3d 06 d4 6c 3d 87 aa ab bd
       0.0104557555 0.04070452 0.05781939 -0.08382135
000050 0f ef 81 bc 7a 2b 5a 3c 5b 03 03 be 92 37 1a 3d
       -0.015861062 0.01331603 -0.12794249 0.037650652
000060 7f 93 5e 3b c8 7f 0a 3e 25 1f 30 3d 91 cf 84 bd
       0.0033962426 0.13525307 0.04299845 -0.06484903
000070 36 db 70 3d ea 25 0f bd bd 2b 84 3d 53 d3 c3 bd
       0.058802806 -0.034948267 0.06453655 -0.09561791
000080 ac 60 a3 bc 7d 23 6c bc 24 12 89 3d fe dc 21 3d
       -0.019943558 -0.014412758 0.06692913 0.039517395
000090 17 d5 ba 3a 28 7f 03 be 81 f7 b4 b9 8f ae 67 bd
       0.001425418 -0.12841475 -0.0003451668 -0.056562956
0000a0 ee 1d a3 bc 2d fa 8e bd 8d 7e 51 bd 73 cb 8f bd
       -0.019911733 -0.06981311 -0.05114608 -0.07021227
0000b0 98 f1 d0 bd de bb 08 3e cb f4 89 3d 8c 0f 11 3e
       -0.1020233 0.13352916 0.06736144 0.14166087
0000c0 e0 34 c9 3b 93 0c d4 bd 7a f5 40 bd 9d 39 df 3a
       0.0061403364 -0.10353961 -0.047109105 0.001703072
0000d0 d8 1d de 3d fe 5e 19 3d 47 83 bf bd 51 74 31 bd
       0.10845536 0.037444107 -0.09351211 -0.04332382
0000e0 7c 41 cf bb eb d5 64 3e 69 ba 1c 3d 83 0a 2c bd
       -0.006324945 0.22347228 0.038263712 -0.042002212
0000f0 cb 43 35 be 8c 08 82 3b 30 c4 1d 3e 74 2b f7 bb
       -0.17701642 0.003968304 0.15406871 -0.007543022
000100 e7 f6 11 3e e9 cc 8f 3b 32 35 db 3d 56 25 51 bb
       0.14254342 0.004388441 0.107035056 -0.0031913123
000110 8b 81 a2 bd fb eb 3a 3e 09 de 9f bd bc d0 60 bd
       -0.079348646 0.18254082 -0.07806022 -0.054886565
000120 c7 75 8b 3d 76 6d 57 3a 3f d7 f3 bc 47 b1 c1 3d
       0.068095736 0.000821791 -0.029765723 0.09457641
000130 6d fe 7d bd b0 eb 3b bb 0d f9 75 bd 53 3e 1b 3e
       -0.062010217 -0.0028674416 -0.060051966 0.15160494
000140 47 2a b0 bd e9 38 cf 3d 76 91 87 3d db b4 17 3d
       -0.08601814 0.101182766 0.06619541 0.03703771
000150 3e b3 01 bd b3 e1 04 bd 68 52 4d 3d 00 e1 9c bc
       -0.03166508 -0.032441806 0.050127417 -0.019150257
000160 eb 15 de bd ba 77 f4 3d 28 2b f7 3b f8 c7 61 3d
       -0.10844024 0.119368985 0.0075429864 0.055122346
000170 f4 c0 e4 3c af fc a7 bb 82 6a ff bc 86 f6 2a bd
       0.027924038 -0.005126558 -0.031178717 -0.04173901
000180 2f d7 12 be 68 8b 9a bd 4a a2 37 bd ba cb d9 3a
       -0.14339899 -0.07546121 -0.044832505 0.0016616501
000190 56 64 0e 3e e9 ed cb bc de 75 7a ba aa 81 fa bd
       0.13905463 -0.024893718 -0.0009554307 -0.12231763
0001a0 34 87 58 bd f1 17 80 3d e2 e4 5d bd cc 87 c5 3d
       -0.052863315 0.062545665 -0.054173358 0.09645042
0001b0 55 7f fd 3c 60 ba d2 bd 52 80 94 bd 35 04 05 bd
       0.030944506 -0.102894545 -0.07251038 -0.032474715
0001c0 33 8d 75 bc a7 0e 06 be c9 0f e6 3d 6c 4b 0d 3d
       -0.014987278 -0.13091527 0.112334795 0.034495756
0001d0 cb 91 af 3d 09 df 9e bd bd c5 d9 bd 3f c7 01 3e
       0.0857273 -0.07757384 -0.10633419 0.12673663
0001e0 a3 c9 31 3d bd 5f a7 bd 1c 17 2a bd ad bd 27 bb
       0.043405186 -0.081725575 -0.041525945 -0.0025595233
0001f0 92 1e f6 3c 1c f1 76 bd 25 49 d0 bd 4f ac 38 bd
       0.030043874 -0.060288534 -0.10170201 -0.0450862
000200 98 f8 cc 3d 4e 60 dd bc 99 a2 3c 3c a6 52 08 3d
       0.10008353 -0.02702346 0.011513376 0.033281945
000210 e1 ff 0a be a1 66 1b bc 1a ab 04 3e c9 e2 9c bc
       -0.13574173 -0.009484918 0.12955895 -0.019151108
000220 cd 15 f7 3c ca 4a 76 3d c2 c7 59 3b ba d1 08 bd
       0.030161763 0.06012992 0.0033230637 -0.033403136
000230 ea 68 9c bd 86 56 18 be 13 e7 d9 3d 8f de 5f bd
       -0.07637198 -0.14876756 0.10639777 -0.054655608
000240 14 59 37 3d eb 0d 25 3d 2d 23 53 bd 17 2c ce bd
       0.044762686 0.040296476 -0.051547218 -0.10067003
000250 eb 92 48 3d ba 8c 67 bd 06 88 09 be 4f 01 85 3d
       0.048968237 -0.05653069 -0.13430795 0.0649439
000260 c1 21 2c bc a5 65 6a 3d a1 3d f4 3d 7c 57 05 be
       -0.010506094 0.057225842 0.11925817 -0.13021654
000270 17 d6 22 3d af 4b 6e bd 63 78 e5 3c d6 fd c1 bd
       0.039754953 -0.058177646 0.028011506 -0.094722435
000280 24 81 f3 3c da 1c 6b 3c 00 88 ae 3b 78 51 0b 3d
       0.029724665 0.0143501405 0.005326271 0.03401324
000290 8b 9d 2d bd 6e cd 16 be 26 47 e1 3c 71 50 e4 bd
       -0.042386573 -0.14726803 0.027499747 -0.111481555
0002a0 dd f2 9c bc 59 21 af bc 9d a8 a7 bc 89 52 b1 bd
       -0.019158775 -0.021378206 -0.020466143 -0.086583205
0002b0 7e 45 aa bd c2 bf 8c 3c ba 02 51 3e 59 0a a7 3d
       -0.08314036 0.017181281 0.20411196 0.081562705
0002c0 30 83 54 3b 73 1b 82 bd 5f c1 a3 bb 5c 5f 01 bd
       0.0032426827 -0.06352892 -0.004997417 -0.031585082
0002d0 66 7d 8b 3d 07 af 0f 3e c7 ed fb bd 2e 48 8f bd
       0.06811027 0.14031611 -0.12301212 -0.06996189
0002e0 14 6e 16 bc e6 0d 28 bd 89 35 6b 3d b9 12 a3 3c
       -0.009181518 -0.04102888 0.057424102 0.019906389
0002f0 48 a5 7d bd 5f 1f 5f bd 27 8a d6 3d ae 28 df 3d
       -0.061925203 -0.054473277 0.10475569 0.10896431
000300 2a 05 a9 bc fb 2e a0 bc a9 34 3c 3d 27 73 a1 3c
       -0.020632345 -0.019553652 0.04594866 0.01970823
000310 ee 35 89 bc c8 2e 51 bd 76 f0 73 bd 12 06 1f bc
       -0.016749348 -0.051070005 -0.059555493 -0.009706037
000320 a4 66 b2 bd 53 a9 8f bc 5a ce 11 3d 91 fc 4b bd
       -0.087109834 -0.017536795 0.035597183 -0.049801413
000330 8b 97 84 ba 87 fb 68 3d 3f df 29 bd fc 22 13 3d
       -0.0010115964 0.0568805 -0.04147267 0.035922036
000340 3c af 9e bd 84 ba 1a bc d2 a7 8a 3d de db 14 bd
       -0.07748267 -0.009443883 0.067702904 -0.036342494
000350 ed ab 92 3d 9c a2 82 3c 62 15 27 3d 3d 8e 2a bd
       0.071616985 0.015946679 0.040791877 -0.041639555
000360 7d 28 16 be 77 01 4b 3c c5 fe 3d bc 82 1e a5 bd
       -0.14663883 0.012390486 -0.011596386 -0.080624595
000370 a0 4d 0b 3e bc 30 7e 3c b9 c7 b8 bc 9d 5d 93 3b
       0.1360383 0.015514549 -0.022556173 0.0044972436
000380 b3 9c ec bb af ad a5 bd 02 e8 81 3d b7 40 1b bd
       -0.0072208284 -0.08089768 0.0634308 -0.037903514
000390 5c 76 6a bd 62 14 b4 bd 1f a6 bd bd e0 af 06 be
       -0.057241783 -0.0879295 -0.09260201 -0.13153028
0003a0 1d de 91 3d 9c 6f 97 3c 9e d5 a7 bd 5c 6e 91 bb
       0.07122443 0.018485837 -0.08195041 -0.0044382047
0003b0 af 62 46 3d a2 d4 25 bd fb a6 77 bd 19 d1 7c bc
       0.048433956 -0.040485986 -0.06046198 -0.015430712
0003c0 9e 0b 88 3d 81 2a 13 bd c6 e7 c2 3c 59 b8 60 ba
       0.06642841 -0.035929207 0.023792159 -0.0008572392
0003d0 d6 8b 91 3d 0d 3c 42 be 61 57 03 3c dd 44 8b 3d
       0.0710675 -0.1896822 0.008016438 0.06800244
0003e0 48 26 7c bd 85 7b 3b 3d c2 79 e2 bd 72 ec a5 3d
       -0.061559945 0.045772094 -0.1105838 0.08101739
0003f0 07 c9 0e 3d 95 43 8a bd 5b 4a a1 bd 9b 04 3c bd
       0.034859683 -0.067511715 -0.0787551 -0.04590283

action_model._continuous_distribution.log_sigma.bias f4 [2]
000000 0b d9 47 be 52 da f5 bd
       -0.19516389 -0.12004532

48 f4 [9]
000000 79 4f 2b 40 13 26 19 3c 17 7d 1b 40 20 cb f6 3f
       2.6767256 0.0093474565 2.4295099 1.9280739
000010 7b 36 9a 3c e4 73 f9 3f c5 4c c2 3f ce 24 de 3f
       0.018824806 1.9488492 1.5179678 1.7354982
000020 0c 92 ee 3f
       1.863832
