RexRobotRetriever/MLAgents/results/mb_1/MobileBase/checkpoint.pt (torch, 987505 bytes, 94 tensors)

network_body.observation_encoder.processors.0.normalizer.running_mean f4 [9]
-0.33575615 0.06910825 0.7646775 -0.6124355 0.03706628 -0.7742977 0.9041077 -0.5996176
4.8211017
00000000: 3be8 abbe a088 8d3d e8c1 433f 93c8 1cbf
00000010: d0d2 173d 6038 46bf 9a73 673f 8a80 19bf
00000020: 7746 9a40

network_body.observation_encoder.processors.0.normalizer.running_variance f4 [9]
1.196725e+06 14.593973 985879.8 620917.7 59.18991 634370.75 384867.97 503077.6
580230.06
00000000: a815 9249 ea80 6941 7db1 7049 5b97 1749
00000010: 78c2 6c42 2ce0 1a49 7fec bb48 b3a4 f548
00000020: 61a8 0d49

network_body.processors.0.normalizer.running_mean f4 [9]
-0.33575615 0.06910825 0.7646775 -0.6124355 0.03706628 -0.7742977 0.9041077 -0.5996176
4.8211017
00000000: 3be8 abbe a088 8d3d e8c1 433f 93c8 1cbf
00000010: d0d2 173d 6038 46bf 9a73 673f 8a80 19bf
00000020: 7746 9a40

network_body.processors.0.normalizer.running_variance f4 [9]
1.196725e+06 14.593973 985879.8 620917.7 59.18991 634370.75 384867.97 503077.6
580230.06
00000000: a815 9249 ea80 6941 7db1 7049 5b97 1749
00000010: 78c2 6c42 2ce0 1a49 7fec bb48 b3a4 f548
00000020: 61a8 0d49

network_body.linear_encoder.seq_layers.0.weight f4 [128, 9]
1.0838768 -0.092187025 0.7314889 0.43942428 0.060519297 0.41105506 0.15004575 -0.02127878
0.14349838 0.31786117 0.03783945 -0.33041647 -0.321806 0.09758041 0.5414905 -0.11195298
-0.52183837 -0.10558092 -0.2629458 -0.12266885 0.78170425 0.49878663 -0.34749267 -0.3002279
-0.5307925 -0.36821893 -0.1337467 0.2586564 -0.31920287 -0.02169386 0.6101725 -0.026704874
-0.20963383 -0.63074416 0.3530355 0.30176663 0.056886513 -0.014622887 -0.5207548 -0.031673748
0.85933024 0.13057408 0.65537024 0.15497227 0.18105854 -0.44192255 0.5577365 0.16810061
-0.49835426 -0.565665 -0.0018689941 0.38227865 0.5970111 -0.12673019 -0.016022295 -0.01888081
-0.18276139 0.4304808 -0.21721944 -0.5281683 0.6594603 0.71439147 0.06647762 -0.19749394
0.2203239 0.03853035 0.3929715 0.18202943 -0.18671392 1.0013696 -0.48310667 0.36510405
-0.9023759 0.25872478 -0.5053149 0.13762917 0.44393763 0.22701992 -0.13379782 0.3838057
-0.26664552 0.74603456 0.11822538 0.4270749 -0.2108272 -0.17290461 -0.08936179 -0.24118075
0.04208721 -0.93390673 -0.31622922 -0.36812788 0.9149177 0.6001909 0.48549622 -0.032189876
0.21337038 0.085824214 0.04307282 0.6099878 -0.64742035 -0.11989189 0.08067198 0.6696876
-0.19459878 0.36082146 -0.7464159 -0.39207146 -0.074851416 0.63654935 -0.18009219 0.044099506
0.89558583 -0.40949348 0.13272962 0.27960023 -0.6307741 -0.23113596 0.22634716 0.05366112
-0.5795367 -1.02226 0.557593 0.1884026 -0.15064766 -0.38661274 -0.01633635 -0.38215575
0.20672944 -0.31947622 0.60736173 -0.024596395 0.097927265 -0.28136683 -0.043544028 0.46248013
-0.82988423 -0.1750339 1.0453267 0.25632477 -0.22924428 0.06871622 0.4927846 -1.1313411
-0.081700064 0.13832805 0.59452 -0.33029592 0.44869226 0.3428773 -0.19576134 -0.12894137
-0.35185462 -0.34608734 0.067495726 -0.062999316 0.13393134 -0.04244679 1.158761 0.24154283
-0.41195652 -0.695819 0.49149188 0.45597246 0.44019845 0.19331084 -0.4574029 -0.34629285
0.1563358 -0.65693843 -0.41911113 0.5534355 -0.24529645 -0.149743 0.5665261 0.042120926
-0.23929855 -0.2936851 -0.4377944 0.3456904 0.7105713 0.44601116 -0.6940531 -0.6469469
-0.18242031 -0.50607336 0.017279925 -0.7103857 -0.20966092 0.26616606 0.06764599 0.42927197
0.28349018 0.14451501 0.21613808 -0.63577324 -0.16337053 0.3361083 0.25985995 0.35778254
-0.1772558 0.21058728 0.5095183 0.62015927 -0.24861932 -0.094872266 0.9202025 -0.5978824
0.2612983 0.6905785 0.4152241 0.5219484 0.041489564 0.18691583 0.17303668 -0.14462548
-0.59271157 -0.30877036 -0.5018042 -0.036523487 -0.4644468 0.6068024 0.20250341 0.09413978
0.9077524 0.33558646 0.3828019 0.30295467 0.22335486 0.09697375 0.12381099 -0.21164529
0.14105023 -0.043772556 0.2027518 -0.47906414 0.58760405 -1.0984993 -0.07516026 0.27340534
0.71498823 0.12951393 0.38185984 0.569207 -0.10074163 -0.41087925 -0.5037816 0.18098272
-0.48347875 -0.6031061 -0.31185558 0.3014358 0.52443075 0.3736765 -0.17685048 0.11633595
00000000: 7abc 8a3f 8dcc bcbd db42 3b3f 38fc e03e
00000010: 15e3 773d cf75 d23e 98a5 193e d650 aebc
00000020: 3df1 123e b3be a23e 8afd 1a3d 592c a9be
00000030: c2c3 a4be 3dd8 c73d 1f9f 0a3f 9b47 e5bd
00000040: 3397 05bf cf3a d8bd d5a0 86be ce39 fbbd
00000050: c51d 483f f660 ff3e 8fea b1be 79b7 99be
00000060: 04e2 07bf 3187 bcbe e5f4 08be 9d6e 843e
00000070: 8f6e a3be 52b7 b1bc 4434 1c3f 2ec4 dabc
00000080: 40aa 56be 7378 21bf 12c1 b43e 2881 9a3e
00000090: d501 693d d594 6fbc 3050 05bf 55bc 01bd
000000a0: 11fd 5b3f 36b5 053e 58c6 273f 0db1 1e3e
000000b0: 6967 393e ac43 e2be d2c7 0e3f 9122 2c3e
000000c0: 4a28 ffbe 6ccf 10bf 09f9 f4ba 07ba c33e
000000d0: b8d5 183f 8fc5 01be 3041 83bc eeab 9abc
000000e0: cd25 3bbe fb67 dc3e c66e 5ebe 0a36 07bf
000000f0: 64d2 283f 5ce2 363f 6b25 883d da3b 4abe
00000100: 979c 613e 00d2 1d3d 8f33 c93e ec65 3a3e
00000110: ef31 3fbe e12c 803f c259 f7be ebee ba3e
00000120: 1b02 67bf 9377 843e 515c 01bf a9ee 0c3e
00000130: cb4b e33e e977 683e 4c02 09be 2e82 c43e
00000140: c385 88be 1ffc 3e3f 2620 f23d 90a9 da3e
00000150: 16e3 57be e80d 31be 5003 b7bd 16f8 76be
00000160: a363 2c3d 8314 6fbf cce8 a1be 427b bcbe
00000170: 0c38 6a3f 1ca6 193f f692 f83e 88d9 03bd
00000180: c47d 5a3e 9bc4 af3d 206d 303d 2928 1c3f
00000190: 57bd 25bf e189 f5bd 5a37 a53d a670 2b3f
000001a0: e744 47be 97bd b83e 1d15 3fbf 97bd c8be
000001b0: b34b 99bd e6f4 223f 166a 38be afa1 343d
000001c0: 1d45 653f 21a9 d1be 46ea 073e c327 8f3e
000001d0: 697a 21bf e8ae 6cbe 8dc7 673e c3cb 5b3d
000001e0: 845c 14bf 6ad9 82bf 6abe 0e3f 9cec 403e
000001f0: 6143 1abe 1bf2 c5be cfd3 85bc eba9 c3be
00000200: e2b0 533e 6392 a3be 0f7c 1b3f 617e c9bc
00000210: 178e c83d 500f 90be 395b 32bd 32ca ec3e
00000220: 4b73 54bf 163c 33be 44cd 853f 003d 833e
00000230: 03bf 6abe 17bb 8c3d 434e fc3e c9cf 90bf
00000240: 5d52 a7bd dea5 0d3e 7632 183f 8c1c a9be
00000250: feba e53e 9d8d af3e a975 48be 3509 04be
00000260: 4a26 b4be 5c32 b1be 333b 8a3d c905 81bd
00000270: 4c25 093e afdc 2dbd 4852 943f 0157 773e
00000280: f7eb d2be 3221 32bf d3a4 fb3e 3975 e93e
00000290: b161 e13e 47f3 453e b730 eabe 4c4d b1be
000002a0: 7e16 203e 1e2d 28bf bc95 d6be f3ad 0d3f
000002b0: fe2e 7bbe 3b56 19be db07 113f fe86 2c3d
000002c0: ae0a 75be e55d 96be 9626 e0be 55fe b03e
000002d0: 00e8 353f 935b e43e 77ad 31bf 509e 25bf
000002e0: 64cc 3abe 068e 01bf a18e 8d3c d6db 35bf
000002f0: 5ab1 56be eb46 883e fb89 8a3d 89c9 db3e
00000300: a025 913e befb 133e 4d53 5d3e 09c2 22bf
00000310: 9b4a 27be 6316 ac3e 5d0c 853e 462f b73e
00000320: 8b82 35be 31a4 573e cb6f 023f c2c2 1e3f
00000330: 1096 7ebe 644c c2bd 6492 6b3f d20e 19bf
00000340: e4c8 853e c1c9 303f 4198 d43e 699e 053f
00000350: f6f0 293d dd66 3f3e 8730 313e b418 14be
00000360: f2bb 17bf 2617 9ebe 3d76 00bf a799 15bd
00000370: f9cb edbe 6757 1b3f 0e5d 4f3e 5bcc c03d
00000380: 7662 683f fdd1 ab3e 9cfe c33e e01c 9b3e
00000390: 23b7 643e 2c9a c63d 9e90 fd3d 8bb9 58be
000003a0: 796f 103e da4a 33bd 2b9e 4f3e e547 f5be
000003b0: 386d 163f a09b 8cbf 9fed 99bd c9fb 8b3e
000003c0: 7809 373f 4d9f 043e 2283 c33e 8db7 113f
000003d0: a151 cebd c45e d2be d5f7 00bf 8953 393e
000003e0: 878a f7be 2965 1abf 89ab 9fbe cb55 9a3e
000003f0: 1841 063f 8752 bf3e 4b18 35be 8b41 ee3d

network_body.linear_encoder.seq_layers.0.bias f4 [128]
-0.073165715 0.07836818 0.09242484 -0.032736376 0.07305302 -0.1068236 -0.08735282 0.14199601
-0.12332442 0.024074124 0.115997046 -0.043741003 -0.10116594 0.040982638 0.08719967 -0.0034395624
-0.11658367 0.032665666 0.08696096 -0.08586376 0.3081396 -0.13272305 -0.029161401 -0.04862125
0.096541226 -0.07111533 0.026662668 0.010069083 -0.020615257 -0.10425443 0.022373613 0.15021189
-0.016659029 -0.0011158837 -0.048014164 -0.05227888 -0.05088078 -0.17410192 0.042509805 0.062230352
-0.06455286 -0.20709461 -0.08412711 -0.06610355 0.023664687 -0.07236675 -0.06730759 0.09188566
0.05232972 -0.058531053 0.03553915 -0.123492606 -0.122775756 0.17630678 -0.058054168 -0.15088196
0.08164222 -0.15040904 0.22301215 -0.13023323 -0.055071525 -0.052887216 0.07935861 -0.11444314
-0.016427068 0.08040929 -0.06296425 0.13173795 -0.058653485 0.03844635 0.068710834 -0.13428177
-0.17519565 0.03048715 -0.12058211 -0.014434025 0.019084796 0.13552521 -0.053162552 0.15478027
-0.10278805 0.025555199 -0.24496527 -0.13414088 0.01745324 -0.1386928 -0.023889229 -0.1115633
0.10329579 0.19770646 -0.0045458227 -0.12301433 -0.14837117 -0.0353872 -0.023458043 0.04096289
0.041121 0.097418584 -0.019483114 0.0055986946 -0.033686236 -0.054509394 -0.044063926 0.13659732
-0.078932464 -0.3787155 0.029836364 -0.13953555 0.010878877 -0.02616991 0.19756074 0.1648355
0.23519243 0.01781418 0.08385443 0.10383851 0.12727995 -0.036248267 -0.016923323 0.2984661
-0.02803036 -0.08762758 -0.13471724 0.07157502 -0.043919206 0.17772415 0.028578311 0.027700767
00000000: e8d7 95bd 7f7f a03d 3c49 bd3d 9416 06bd
00000010: d29c 953d 55c6 dabd 09e6 b2bd 6767 113e
00000020: 8391 fcbd 1937 c53c dc8f ed3d c429 33bd
00000030: 1730 cfbd 69dd 273d be95 b23d 486a 61bb
00000040: 6bc3 eebd 6fcc 053d 9618 b23d 57d9 afbd
00000050: 79c4 9d3e 8de8 07be e4e3 eebc 1327 47bd
00000060: 68b7 c53d eaa4 91bd ab6b da3c ccf8 243c
00000070: 54e1 a8bc 5983 d5bd de48 b73c 25d1 193e
00000080: 8478 88bc d842 92ba 80aa 44bd 6122 56bd
00000090: 5d68 50bd c647 32be c31e 2e3d 41e5 7e3d
000000a0: 4a34 84bd 9c10 54be d64a acbd 4c61 87bd
000000b0: 72dc c13c 0535 94bd 90d8 89bd 8d2e bc3d
000000c0: b057 563d 42be 6fbd 8091 113d b1e9 fcbd
000000d0: db71 fbbd c489 343e 35ca 6dbd cd80 1abe
000000e0: 0934 a73d d404 1abe 4c5d 643e dc5b 05be
000000f0: ae92 61bd 44a0 58bd c486 a23d 2a61 eabd
00000100: 0f92 86bc a0ad a43d 67f3 80bd 50e6 063e
00000110: a33e 70bd eb79 1d3d 44b8 8c3d 2981 09be
00000120: 7d66 33be 30c0 f93c c1f3 f6bd b07c 6cbc
00000130: b857 9c3c 1fc7 0a3e fac0 59bd b87e 1e3e
00000140: 8b82 d2bd 2359 d13c 2dd8 7abe 3a5c 09be
00000150: 19fa 8e3c 7c05 0ebe 58b3 c3bc 4d7b e4bd
00000160: be8c d33d 9073 4a3e 20f5 94bb f0ee fbbd
00000170: 9dee 17be 2bf2 10bd 152b c0bc b4c8 273d
00000180: 7e6e 283d 6583 c73d 0d9b 9fbc 4175 b73b
00000190: 94fa 09bd 3e45 5fbd 607c 34bd 2be0 0b3e
000001a0: 58a7 a1bd ffe6 c1be 646b f43c 68e2 0ebe
000001b0: 513d 323c 4762 d6bc 5d4d 4a3e a3ca 283e
000001c0: 49d6 703e 0bef 913c dfbb ab3d 49a9 d43d
000001d0: ad55 023e 1079 14bd c8a2 8abc 8cd0 983e
000001e0: ed9f e5bc 1776 b3bd 51f3 09be ed95 923d
000001f0: a0e4 33bd 52fd 353e 101d ea3c b8ec e23c

network_body.linear_encoder.seq_layers.2.weight f4 [128, 128]
-0.07444775 -0.18090807 -0.21986435 -0.19312817 0.12405402 -0.088614926 0.04900296 -0.018795643
0.14868337 -0.03588315 -0.058122635 -0.54739344 0.28286594 -0.10353553 -0.072657086 -0.031587377
0.047132112 -0.0018653306 -0.49293014 -0.4290799 -0.19725724 -0.31148815 -0.015137085 0.086159006
0.042690404 0.1315813 0.114241235 -0.0019141281 -0.082015745 0.17942862 -0.32533145 -0.051876858
-0.071598195 -0.08884916 0.1963217 -0.106974065 -0.12625776 -0.008013229 0.019545874 -0.22188403
-0.19091754 0.024128933 -0.14307691 0.19984604 -0.41499275 -0.0038496926 0.23044848 -0.3722497
-0.06006166 0.05451183 0.055267192 -0.15746655 0.22065228 -0.0679546 -0.16470149 -0.007943176
-0.1661056 0.03158804 -0.3408585 -0.014726786 0.021765506 0.1945779 -0.033428784 0.29892
-0.1820878 -0.0055467165 0.047957394 0.059901416 -0.006621006 -0.048627574 -0.16452268 0.07282568
0.025601674 -0.1816045 -0.17773314 0.0028461656 -0.1623938 -0.23960178 -0.008073142 -0.0391268
-0.003362473 -0.095146544 0.23286574 -0.0523059 -0.028875567 0.07736294 -0.10036268 -0.04551745
-0.10933763 -0.0066476893 0.1327587 -0.12867974 0.1523128 0.19517922 -0.1582614 -0.076100856
-0.45861298 -0.27011916 0.034619007 -0.019473441 0.06279554 -0.1611312 -0.03960757 -0.0525796
0.114436716 0.08476064 -0.021345144 -0.15300569 -0.093887895 0.16698708 -0.0039405976 0.12078574
0.11188279 0.038516004 -0.37815702 0.03961962 0.0033925106 -0.041078657 -0.062158946 -0.25171915
-0.10554208 -0.13483575 0.0892534 0.10988041 0.04718319 -0.2695417 -0.073351815 0.107230455
-0.04249621 -0.12687695 -0.144169 0.17655861 0.15568732 0.1928531 0.090227164 0.030615035
0.043383844 0.13111268 -0.13803034 -0.33409953 0.012349075 0.05273247 -0.027202262 0.08131376
-0.03270114 -0.011883484 0.059599966 0.039048154 0.010692699 -0.09043459 -0.15766299 0.0730069
-0.011138027 -0.14133127 -0.1079116 0.16769356 -0.0027394614 0.21997093 -0.19212042 0.082059644
0.12106844 0.05765819 0.16011967 0.14634065 0.06421595 0.08333828 -0.04472075 -0.22418898
0.0518465 0.10088021 0.09325604 -0.14463297 0.013268593 0.12561168 -0.18727405 -0.090588644
0.040485468 -0.12800075 0.1491365 0.12971306 -0.013079037 -0.026735703 -0.13878174 0.030906951
-0.25049663 0.14426221 0.030839488 0.12388321 -0.08252667 -0.04620786 0.15269382 0.029967755
-0.10753776 -0.056557015 0.051468566 -0.18378425 -0.24812643 -0.15484598 -0.017735634 0.17510353
0.12260863 -0.17626391 0.07783291 -0.12929298 -0.005792531 -0.23118305 -0.18553732 0.10207448
0.019000798 -0.04209663 -0.016993582 0.18279803 -0.09917333 0.14243126 -0.0035589084 -0.12293605
0.084651984 -0.13105248 -0.20283979 -0.009435392 -0.121145666 -8.849542e-06 -0.03667164 -0.105276525
-0.014213512 -0.043483935 -0.008040946 0.15598103 0.08784078 0.033092972 -0.23874016 0.16988783
0.004793021 0.16740246 -0.026897853 0.02134986 -0.04396519 0.03458188 -0.12004633 -0.1454472
0.11053749 -0.069674395 -0.08215174 0.21025534 0.11178722 -0.457413 -0.009210694 -0.026671423
-0.42103007 0.123664655 -0.21023671 0.08690352 0.19331549 -0.17975938 -0.18521047 -0.15009962
00000000: 1078 98bd f73f 39be 1f24 61be 64c3 45be
00000010: 0910 fe3d be7b b5bd 54b7 483d 52f9 99bc
00000020: 7440 183e 36fa 12bd 0012 6ebd fa21 0cbf
00000030: ced3 903e 700a d4bd 3dcd 94bd c461 01bd
00000040: 9a0d 413d 1c7e f4ba 5761 fcbe 5cb0 dbbe
00000050: cdfd 49be 607b 9fbe 8901 78bc 2274 b03d
00000060: 22dc 2e3d 40bd 063e 4ff7 e93d 7be3 faba
00000070: dff7 a7bd 23bc 373e d891 a6be d47c 54bd
00000080: 13a2 92bd 8cf6 b5bd 8e08 493e 3815 dbbd
00000090: b749 01be eb49 03bc ab1e a03c 9135 63be
000000a0: e37f 43be 0aaa c53c c182 12be 71a4 4c3e
000000b0: ee79 d4be 204b 7cbb b0fa 6b3e 8397 bebe
000000c0: 3703 76bd cc47 5f3d da5f 623d e93e 21be
000000d0: acf2 613e c82b 8bbd 82a7 28be 1824 02bc
000000e0: 9617 2abe 7662 013d 0185 aebe 9e48 71bc
000000f0: 934d b23c 6e3f 473e 9fec 08bd 0b0c 993e
00000100: 3975 3abe 3bc1 b5bb f96e 443d 305b 753d
00000110: 06f5 d8bb b52d 47bd a278 28be a125 953d
00000120: 9aba d13c 88f6 39be adff 35be bc86 3a3b
00000130: 8f4a 26be 2b5a 75be 3645 04bc 6c43 20bd
00000140: f05c 5cbb 31dc c2bd 5b74 6e3e b63e 56bd
00000150: 748c ecbc 7670 9e3d f38a cdbd 8170 3abd
00000160: 68ec dfbd dcd4 d9bb e6f1 073e 9fc4 03be
00000170: e3f7 1b3e 10dd 473e 470f 22be c4da 9bbd
00000180: 52cf eabe 0f4d 8abe a9cc 0d3d c486 9fbc
00000190: f39a 803d 94ff 24be 8c3b 22bd b55d 57bd
000001a0: cc5d ea3d fd96 ad3d 03dc aebc 86ad 1cbe
000001b0: 4c48 c0bd a9fe 2a3e 2120 81bb 845e f73d
000001c0: ce22 e53d f5c2 1d3d cc9d c1be 2f48 223d
000001d0: e254 5e3b 1842 28bd 619a 7ebd 55e1 80be
000001e0: 7226 d8bd 6212 0abe 7dca b63d fb08 e13d
000001f0: 2943 413d 5f01 8abe 7a39 96bd a49b db3d
00000200: 8210 2ebd 08ec 01be 0aa1 13be c8cb 343e
00000210: 7f6c 1f3e 487b 453e 05c9 b83d 62cc fa3c
00000220: 42b3 313d 6742 063e d357 0dbe 180f abbe
00000230: c653 4a3c 01fe 573d 47d7 debc d487 a63d
00000240: a1f1 05bd f2b2 42bc 181f 743d f5f0 1f3d
00000250: 6e30 2f3c c535 b9bd 6872 21be a484 953d
00000260: 457c 36bc 25b9 10be c200 ddbd dcb7 2b3e
00000270: 8988 33bb 0f40 613e 37bb 44be e30e a83d
00000280: bbf2 f73d ff2a 6c3d 69f6 233e 53da 153e
00000290: a783 833d 43ad aa3d 1b2d 37bd cc91 65be
000002a0: ff5c 543d 499a ce3d 06fd be3d aa1a 14be
000002b0: 8364 593c 59a0 003e c5c4 3fbe 8a86 b9bd
000002c0: 17d4 253d a112 03be 3db7 183e 80d3 043e
000002d0: 7549 56bc d504 dbbc cd1c 0ebe 9330 fd3c
000002e0: 1841 80be 79b9 133e 18a3 fc3c 7bb6 fd3d
000002f0: be03 a9bd 7444 3dbd c55b 1c3e f07e f53c
00000300: c23c dcbd 54a8 67bd b4d0 523d f031 3cbe
00000310: db14 7ebe f28f 1ebe 524a 91bc 574e 333e
00000320: 3c1a fb3d 877e 34be dc66 9f3d 6165 04be
00000330: 46cf bdbb 40bb 6cbe 7ffd 3dbe 6d0c d13d
00000340: 90a7 9b3c 846d 2cbd 2036 8bbc 682f 3b3e
00000350: 631b cbbd 80d9 113e 933c 69bb e5c5 fbbd
00000360: 055e ad3d 9f32 06be 3cb5 4fbe e796 1abc
00000370: 381b f8bd 7e78 14b7 0035 16bd 389b d7bd
00000380: cadf 68bc 361c 32bd 2cbe 03bc 7eb9 1f3e
00000390: dee5 b33d 7f8c 073d 4d78 74be 13f7 2d3e
000003a0: c60e 9d3b 8d6b 2b3e e358 dcbc e7e5 ae3c
000003b0: d814 34bd bba5 0d3d dada f5bd 1cf0 14be
000003c0: 7b61 e23d 73b1 8ebd 2c3f a8bd 2d4d 573e
000003d0: b3f0 e43d 0932 eabe 73e8 16bc 077e dabc
000003e0: 4191 d7be e543 fd3d 4b48 57be 79fa b13d
000003f0: 7ff4 453e d812 38be d0a7 3dbe b7b3 19be

network_body.linear_encoder.seq_layers.2.bias f4 [128]
-0.15676253 -0.07906768 -0.05874222 -0.079256654 0.10254322 -0.039567042 -0.07747065 -0.006894345
-0.10853654 -0.041044474 -0.011092576 -0.04385145 0.07894269 0.12672883 -0.022502962 -0.002503733
-0.06791995 -0.14539 -0.06374865 0.04529323 -0.09540321 -0.08144009 0.056795854 -0.07489792
-0.08006733 -0.006886419 -0.13294987 0.08098465 -0.017378477 -0.08875371 -0.13720044 0.035699937
0.01359975 -0.16649897 -0.016843628 -0.116918445 -0.13063549 0.059552014 -0.0750828 0.032366756
0.0089726895 0.01473661 -0.0727173 -0.005174121 -0.016871637 -0.039889257 -0.1490584 -0.116548724
-0.00014925681 0.0685033 0.034781136 -0.0891245 -0.17390473 -0.17021585 0.052860152 -0.09133946
-0.017915653 -0.04261553 -0.14006759 -0.0011699355 0.11390253 -0.006223013 -0.09196387 -0.15462016
-0.07848069 -0.06463484 -0.1757348 -0.11599858 0.12522838 -0.12534401 -0.022234216 -0.01908805
0.006694712 -0.13231902 -0.0857633 -0.022054607 0.039030407 -0.04175915 0.06344358 -0.090011306
0.045577373 0.018686969 -0.10407084 0.08595894 -0.11755153 -0.09335679 -0.13745871 -0.025260713
-0.021681394 -0.07541182 -0.10388727 -0.009276254 -0.23487419 -0.018194221 -0.0032828401 -0.19205509
0.016888073 0.015253304 0.033515695 -0.02370398 -0.114042066 -0.05261908 0.07672244 0.09497935
-0.20570983 -0.04707019 0.11007024 -0.127965 -0.10343388 0.023507096 0.008171479 -0.016919736
-0.04850311 0.053996522 -0.24264324 -0.062322743 -0.07209813 0.08768994 0.051484 -0.06566073
-0.10758445 -0.055345796 0.020572728 0.010732731 -0.12224535 0.013947594 0.045914076 0.048364982
00000000: 5b86 20be 3cee a1bd af9b 70bd 5051 a2bd
00000010: 2e02 d23d 0d11 22bd efa8 9ebd f5e9 e1bb
00000020: 6848 debd 401e 28bd a3bd 35bc 949d 33bd
00000030: b4ac a13d 34c5 013e 2258 b8bc ab15 24bb
00000040: 9d19 8bbd 1ee1 14be a78e 82bd 6585 393d
00000050: c262 c3bd 10ca a6bd c5a2 683d 1564 99bd
00000060: 57fa a3bd 78a7 e1bb 0324 08be 48db a53d
00000070: 4f5d 8ebc 81c4 b5bd 467e 0cbe 193a 123d
00000080: 7cd1 5e3c b57e 2abe a6fb 89bc f072 efbd
00000090: 4fc5 05be d0ec 733d 03c5 99bd 0193 043d
000000a0: 3002 133c d371 713c cfec 94bd ac8b a9bb
000000b0: 6336 8abc eb62 23bd c4a2 18be 19b1 eebd
000000c0: d281 1cb9 754b 8c3d aa76 0e3d e886 b6bd
000000d0: 1514 32be 104d 2ebe e383 583d 2f10 bbbd
000000e0: d9c3 92bc 9f8d 2ebd e16d 0fbe 8558 99ba
000000f0: bb45 e93d 6bea cbbb 8e57 bcbd bf54 1ebe
00000100: 7cba a0bd 455f 84bd d3f3 33be aa90 edbd
00000110: de3b 003e 2e5a 00be 8824 b6bc 8b5e 9cbc
00000120: 515f db3b a37e 07be aba4 afbd ddab b4bc
00000130: 59de 1f3d a40b 2bbd b5ee 813d d957 b8bd
00000140: 57af 3a3d 6a15 993c 1823 d5bd 3e0b b03d
00000150: dbbe f0bd d831 bfbd fac1 0cbe 8eef cebc
00000160: 2e9d b1bc 8371 9abd d9c2 d4bd 6efb 17bc
00000170: dc82 70be 0c0c 95bc eb24 57bb 17aa 44be
00000180: db58 8a3c fee8 793c c147 093d d92e c2bc
00000190: e38e e9bd 1b87 57bd a820 9d3d 8984 c23d
000001a0: 99a5 52be accc 40bd 826c e13d 4209 03be
000001b0: 24d5 d3bd f491 c03c abe1 053c 429b 8abc
000001c0: 32ab 46bd 752b 5d3d 7877 78be 2246 7fbd
000001d0: 2fa8 93bd c996 b33d e3e0 523d 2279 86bd
000001e0: 3c55 dcbd 46b2 62bd 2388 a83c 56d8 2f3c
000001f0: c55b fabd 7384 643c 6610 3c3d 5c1a 463d

action_model._continuous_distribution.mu.weight f4 [2, 128]
-0.12222281 -0.09942874 0.05216357 -0.29813117 0.049274277 0.0038018653 -0.4993628 -0.08478306
-0.006112406 -0.06295689 0.031738773 -0.015386986 -0.018473033 0.053065993 0.28076127 -0.011574607
0.023834283 -0.09970725 0.096329704 -0.03887058 -0.058222592 -0.064933166 -0.14924066 0.08425398
0.23573607 -0.21133046 0.10775482 -0.045827206 -0.10832792 -0.06944922 0.06388294 -0.041357208
0.0030731244 0.30240032 -0.11894766 -0.008702231 0.29272243 -0.0285369 0.09038321 -0.0038404653
-0.05891873 -0.14876878 0.07328798 0.18418275 -0.09772123 -0.12776843 0.074535295 -0.022863703
-0.1454688 -0.08919373 -0.1437421 0.03656741 -0.44460547 -0.15226501 0.021491705 0.03876813
0.12984271 0.09342652 -0.1446486 -0.12513535 -0.035054136 -0.14337792 0.031568803 0.23086633
0.2627873 -0.15424596 -0.06674052 -0.07884147 0.0910983 0.08782872 -0.041347027 -0.03500529
0.0002927659 -0.005076612 -0.33439606 0.013618983 -0.07926918 0.018360268 -0.0021699101 -0.073980436
-0.008430996 -0.2812588 0.18031362 -0.10570304 -0.18888506 0.026199948 0.14744927 -0.09227707
0.022688163 -0.031520173 0.034675095 0.038912866 -0.37278253 -0.21193612 0.05327765 0.31885225
0.022751918 -0.011606604 -0.14021447 0.08963734 0.14745577 -0.037876874 -0.062052418 0.041837666
-0.16413485 -0.093521915 -0.013529634 -0.114410706 0.22339219 0.014228184 0.038815938 -0.09552217
-0.1796186 0.054754052 0.28198603 0.062951185 -0.054755975 0.04828225 0.004500554 0.25395772
-0.05781969 0.06882163 0.053634446 -0.10085489 0.13569206 0.013878421 0.051204402 0.006994729
-0.25571185 -0.028485103 0.18889593 -0.060404025 -0.032105647 -0.23756789 0.09687175 -0.16554856
0.24059121 -0.37576512 -0.14148778 0.034839135 -0.015591239 -0.1488356 0.01660578 -0.0014915774
0.2503371 0.06811837 0.42363065 0.15388295 0.25278714 0.09607226 -0.03006458 -0.30649483
-0.042564914 0.16219369 -0.044209596 0.02006961 0.11506104 -0.09511005 0.22471437 0.0049568564
0.005331164 -0.008282954 0.0134694595 0.32745868 0.2957414 -0.0513255 -0.31140718 -0.009171625
-0.31793097 0.052935377 0.28784454 -0.28684965 0.02805669 -0.24523517 0.065444775 -0.0128613
0.027023435 -0.12854311 -0.0044077593 -0.08974574 -0.028614003 -0.25766262 -0.029216062 0.12760158
0.046301458 0.1388341 -0.22902255 0.016474716 -0.062665656 -0.10377159 -0.071635455 -0.17873418
-0.044197787 -0.23673365 0.1089693 0.22993027 0.013490696 -0.26485056 0.16847731 0.28401297
-0.011357276 0.13371263 0.096089326 -0.30628607 0.08699805 0.0006104548 -0.0440969 0.016600752
-0.10490508 0.2225036 -0.10671963 -0.15115201 0.01804906 -0.13570833 -0.059087496 -0.07246942
0.0137895895 -0.0033369735 -0.0180911 -0.25104842 -0.2991716 -0.16035269 -0.15100566 -0.012719595
-0.0070395907 -0.1678054 -0.16196156 -0.24818897 0.18456355 0.110825695 -0.10149811 0.03287593
-0.39660713 -0.16038258 -0.1303955 0.1866855 0.05989161 0.0015343226 -0.08328101 0.107286446
-0.07572332 -0.07077671 -0.2589009 -0.13274689 -0.024775898 -0.11719677 -0.006626658 -0.058260724
-0.0009913067 0.04255516 -0.037290122 -0.20010306 -0.3887574 -0.11131877 -0.012837877 0.007940188
00000000: f44f fabd 4ca1 cbbd 78a9 553d a6a4 98be
00000010: d3d3 493d b728 793b 7bac ffbe bea2 adbd
00000020: 944a c8bb 8bef 80bd 8400 023d b219 7cbc
00000030: c254 97bc ba5b 593d f1bf 8f3e 6ca3 3dbc
00000040: 1d40 c33c 5133 ccbd 8248 c53d c236 1fbd
00000050: d07a 6ebd aefb 84bd 8bd2 18be 5a8d ac3d
00000060: cc64 713e 0367 58be 8fae dc3d 4fb5 3bbd
00000070: 07db ddbd 653b 8ebd 0fd5 823d 2d66 29bd
00000080: 7966 493b 37d4 9a3e d59a f3bd cd93 0ebc
00000090: b7df 953e 38c6 e9bc d51a b93d 51b0 7bbb
000000a0: c454 71bd d856 18be 0218 963d 679a 3c3e
000000b0: 1122 c8bd bad5 02be f6a5 983d a94c bbbc
000000c0: c6f5 14be 34ab b6bd 2131 13be b5c7 153d
000000d0: 54a3 e3be 5ceb 1bbe 5f0f b03c 55cb 1e3d
000000e0: 7df5 043e 6756 bf3d c31e 14be 7b23 00be
000000f0: ed94 0fbd a9d1 12be 4a4e 013d 3968 6c3e
00000100: 0f8c 863e a7f2 1dbe 41af 88bd a377 a1bd
00000110: bf91 ba3d 8bdf b33d 805b 29bd b561 0fbd
00000120: 607e 9939 b559 a6bb f635 abbe 2822 5f3c
00000130: e157 a2bd 4668 963c 0d35 0ebb 0e83 97bd
00000140: 2922 0abc 2701 90be 22a4 383e d67a d8bd
00000150: 166b 41be 46a1 d63c f1fc 163e c3fb bcbd
00000160: 87dc b93c 4c1b 01bd 7907 0e3d 1963 1f3d
00000170: 5add bebe c805 59be aa39 5a3d 9a40 a33e
00000180: 3b62 ba3c a029 3ebc 6294 0fbe c893 b73d
00000190: a5fe 163e c824 1bbd ad2a 7ebd f95d 2b3d
000001a0: f712 28be 6b88 bfbd 66ab 5dbc 2950 eabd
000001b0: ecc0 643e 541d 693c 76fd 1e3d 21a1 c3bd
000001c0: f0ed 37be c945 603d 7960 903e 8dec 803d
000001d0: cd47 60bd 9cc3 453d 6279 933b bf06 823e
000001e0: 57d4 6cbd 5bf2 8c3d cbaf 5b3d 028d cebd
000001f0: dcf2 0a3e 5162 633c b5bb 513d 0a34 e53b
00000200: aaec 82be 9759 e9bc ef6d 413e 366a 77bd
00000210: 3681 03bd ff44 73be b264 c63d 9085 29be
00000220: 8b5d 763e 4964 c0be 2ce2 10be 7bb3 0e3d
00000230: 6572 7fbc 5c68 18be d808 883c 0881 c3ba
00000240: 2f2c 803e a581 8b3d 1ee6 d83e 7e93 1d3e
00000250: 516d 813e 88c1 c43d fe49 f6bc e4ec 9cbe
00000260: 8c58 2ebd 1a16 263e 1f15 35bd 0669 a43c
00000270: 1fa5 eb3d 0fc9 c2bd 861b 663e 206d a23b
00000280: 0cb1 ae3b 3ab5 07bc 02af 5c3c aaa8 a73e
00000290: 6b6b 973e b03a 52bd c370 9fbe 9544 16bc
000002a0: d9c7 a2be c4d2 583d 5c60 933e f5dd 92be
000002b0: 25d7 e53c ee1e 7bbe e907 863d 34b8 52bc
000002c0: 4060 dd3c cea0 03be f76e 90bb 9dcc b7bd
000002d0: ea67 eabc 5bec 83be 8656 efbc fda9 023e
000002e0: 99a6 3d3d 872a 0e3e e384 6abe fcf5 863c
000002f0: da56 80bd 3386 d4bd 9cb5 92bd 1806 37be
00000300: bd08 35bd 4e6a 72be 4c2b df3d d772 6b3e
00000310: 1508 5d3c 7e9a 87be 5185 2c3e 266a 913e
00000320: de13 3abc f7eb 083e 7bca c43d 87d1 9cbe
00000330: 092c b23d ee06 203a f39e 34bd 4dfe 873c
00000340: 79d8 d6bd fcd7 633e d28f dabd 98c7 1abe
00000350: 9fdb 933c 20f7 0abe bb05 72bd d96a 94bd
00000360: bbed 613c 20b1 5abb c933 94bc 6b89 80be
00000370: 052d 99be 7f33 24be 3aa1 1abe d965 50bc
00000380: 5eac e6bb 2ed5 2bbe 40d9 25be 4025 7ebe
00000390: 3afe 3c3e 95f8 e23d 3ede cfbd e9a8 063d
000003a0: 1710 cbbe 553b 24be 6686 05be 7c2a 3f3e
000003b0: e850 753d 531b c93a 3c8f aabd ffb8 db3d
000003c0: d414 9bbd 61f3 90bd a98e 84be cdee 07be
000003d0: d3f6 cabc dc04 f0bd 7024 d9bb cca2 6ebd
000003e0: bcee 81ba 524e 2e3d 87bd 18bd d1e7 4cbe
000003f0: 360b c7be 18fb e3bd f555 52bc 9017 023c

action_model._continuous_distribution.mu.bias f4 [2]
-0.009859061 0.008513197
00000000: e687 21bc f07a 0b3c

action_model._continuous_distribution.log_sigma.weight f4 [2, 128]
0.07398553 0.09789021 -0.026320433 0.03649695 -0.14911042 0.015217498 0.10289768 -0.037224296
0.02093972 0.05864652 -0.04445213 -0.022666022 -0.12275206 -0.13855103 0.10119596 -0.092440166
0.010496713 0.040681683 0.057785552 -0.083841465 -0.015857724 0.013357942 -0.12791194 0.037676103
0.0033712904 0.1352681 0.042963833 -0.06484432 0.058746602 -0.034882635 0.06447946 -0.09564287
-0.019918477 -0.0143673895 0.066962644 0.039509185 0.0014316327 -0.12841415 -0.000366967 -0.05649485
-0.019925466 -0.06974615 -0.051158376 -0.07027002 -0.102060944 0.13349876 0.06736808 0.14161204
0.0061197677 -0.103668824 -0.04709673 0.0017282426 0.10839763 0.03739545 -0.09355381 -0.043273363
-0.0063311867 0.22352888 0.03820993 -0.04204736 -0.1770412 0.003916233 0.15409891 -0.007573201
0.14259171 0.004414774 0.10699376 -0.0031538396 -0.079298 0.18257806 -0.07805592 -0.054947454
0.06805614 0.00080825225 -0.02975383 0.09469783 -0.062084172 -0.002876045 -0.06003051 0.15170716
-0.08596101 0.10119586 0.06624057 0.03703051 -0.031605422 -0.03239854 0.0500746 -0.019093506
-0.10853962 0.119336054 0.007504333 0.055167858 0.027992053 -0.005140832 -0.031147165 -0.041804202
-0.14339368 -0.07543776 -0.044881772 0.0017042222 0.13907014 -0.024885185 -0.0010141549 -0.122380935
-0.05288156 0.06258871 -0.054226473 0.0964213 0.03090045 -0.10289583 -0.07250327 -0.032614786
-0.01493003 -0.13088024 0.112370975 0.03447178 0.085821874 -0.077575915 -0.10636102 0.12674023
0.043371838 -0.08178009 -0.04151264 -0.002547325 0.030017465 -0.06020367 -0.10172065 -0.04503228
0.10006743 -0.027111156 0.0115642985 0.033300146 -0.13584453 -0.009465176 0.12963754 -0.019078258
0.030162098 0.060146175 0.0033812812 -0.033361793 -0.07630481 -0.14896041 0.10635216 -0.0545734
0.044825133 0.040306453 -0.051417727 -0.10065437 0.048958637 -0.05651984 -0.1342775 0.06498148
-0.010558575 0.057280514 0.1192272 -0.1301881 0.03974186 -0.05807926 0.02803574 -0.09467198
0.029682169 0.014395665 0.0053526317 0.033954285 -0.042428076 -0.14738336 0.027406005 -0.11143367
-0.019086773 -0.021474756 -0.020413136 -0.08662669 -0.083177224 0.017249838 0.20413253 0.08153311
0.0031794477 -0.063610435 -0.005000807 -0.031689744 0.068104565 0.14035545 -0.12311681 -0.069964975
-0.009233416 -0.0409935 0.057459604 0.01987711 -0.061862543 -0.05438796 0.10475095 0.10896113
-0.020709597 -0.019422196 0.045998745 0.019728078 -0.016743006 -0.05107067 -0.059537254 -0.00976358
-0.08704785 -0.01754327 0.035613403 -0.049778238 -0.0010862504 0.056831446 -0.041558508 0.03588471
-0.077589236 -0.009508263 0.06770789 -0.036298055 0.07156784 0.015802633 0.04089255 -0.04167616
-0.14664142 0.012368599 -0.011588495 -0.0805123 0.13606857 0.015533206 -0.022677273 0.004606202
-0.0071677025 -0.080952 0.06346887 -0.03780247 -0.057176482 -0.08786828 -0.09254838 -0.13160208
0.07123159 0.018397337 -0.08206444 -0.0044687134 0.04847058 -0.040450577 -0.06054137 -0.015403354
0.06644939 -0.035977755 0.023662321 -0.000759109 0.070952 -0.18968241 0.008079403 0.06806786
-0.06158086 0.04578775 -0.1107456 0.080973364 0.034809943 -0.0676009 -0.07879198 -0.04590291
00000000: ba85 973d aa7a c83d f39d d7bc d37d 153d
00000010: 67b0 18be d052 793c 05bc d23d 8178 18bd
00000020: c789 ab3c 5537 703d 7013 36bd 18ae b9bc
00000030: 6f65 fbbd 52e0 0dbe d43f cf3d 4551 bdbd
00000040: 68fa 2b3c d6a1 263d 8bb0 6c3d 13b5 abbd
00000050: 0fe8 81bc 45db 5a3c 59fb 02be 4252 1a3d
00000060: def0 5c3b b983 0a3e d8fa 2f3d 19cd 84bd
00000070: 47a0 703d 18e1 0ebd cf0d 843d 69e0 c3bd
00000080: 132c a3bc 3365 6bbc b623 893d 62d4 213d
00000090: 9fa5 bb3a 007f 03be 7a65 c0b9 2567 67bd
000000a0: bb3a a3bc 12d7 8ebd 728b 51bd bae9 8fbd
000000b0: 5405 d1bd e6b3 083e 47f8 893d bf02 113e
000000c0: 5588 c83b 5250 d4bd 80e8 40bd 3386 e23a
000000d0: 94ff dd3d f92b 193d 2499 bfbd 693f 31bd
000000e0: d875 cfbb c1e4 643e 0482 1c3d da39 2cbd
000000f0: 4a4a 35be be53 803b 1bcc 1d3e 9d28 f8bb
00000100: 9003 123e cfa9 903b 8b1f db3d a6b0 4ebb
00000110: fd66 a2bd bef5 3a3e c8db 9fbd 9510 61bd
00000120: 0461 8b3d e4e0 533a 4ebe f3bc f0f0 c13d
00000130: f94b 7ebd 077c 3cbb 8de2 75bd 1f59 1b3e
00000140: 530c b0bd c63f cf3d 23a9 873d 4ead 173d
00000150: b074 01bd 55b4 04bd 061b 4d3d fc69 9cbc
00000160: 054a debd 7666 f43d e8e6 f53b b1f7 613d
00000170: 974f e53c 6d74 a8bb 5728 ffbc e23a 2bbd
00000180: cbd5 12be 1d7f 9abd f3d5 37bd 3560 df3a
00000190: 6768 0e3e 04dc cbbc 64ed 84ba dba2 fabd
000001a0: 569a 58bd 822e 803d 941c 5ebd 8878 c53d
000001b0: f122 fd3c 0dbb d2bd 987c 94bd 1597 05bd
000001c0: 169d 74bc 7805 06be c122 e63d 4832 0d3d
000001d0: 61c3 af3d 1fe0 9ebd ced3 d9bd 31c8 013e
000001e0: aba6 313d 527c a7bd 2809 2abd 06f1 26bb
000001f0: 30e7 f53c 2098 76bd eb52 d0bd c573 38bd
00000200: 27f0 cc3d 3718 debc 2f78 3d3c bc65 083d
00000210: d41a 0bbe d313 1bbc b4bf 043e 024a 9cbc
00000220: 8116 f73c d65b 763d 7c98 5d3b 60a6 08bd
00000230: b245 9cbd 1489 18be 29cf d93d 5c88 5fbd
00000240: 8f9a 373d 6118 253d 659b 52bd e123 cebd
00000250: da88 483d 5981 67bd 0a80 09be 0315 853d
00000260: e0fd 2cbc f99e 6a3d 642d f43d 0750 05be
00000270: 5cc8 223d 85e4 6dbd 35ab e53c 62e3 c1bd
00000280: 0528 f33c ccdb 6b3c 2165 af3b a613 0b3d
00000290: 10c9 2dbd aaeb 16be 8f82 e03c 5637 e4bd
000002a0: dd5b 9cbc d4eb afbc 7339 a7bc 5669 b1bd
000002b0: d258 aabd 884f 8d3c 1e08 513e d5fa a63d
000002c0: 485e 503b 3046 82bd cfdd a3bb 1bcd 01bd
000002d0: 687a 8b3d 57b9 0f3e ab24 fcbd cc49 8fbd
000002e0: c147 17bc cde8 27bd c35a 6b3d 52d5 a23c
000002f0: 9463 7dbd e9c5 5ebd ab87 d63d 0327 df3d
00000300: 2ca7 a9bc 4c1b 9fbc 2e69 3c3d c79c a13c
00000310: a128 89bc 7b2f 51bd 56dd 73bd 6cf7 1fbc
00000320: 2546 b2bd e7b6 8fbc 5cdf 113d 44e4 4bbd
00000330: 8460 8eba 17c8 683d 4139 2abd d8fb 123d
00000340: 1be7 9ebd 8cc8 1bbc 6faa 8a3d 45ad 14bd
00000350: 2992 923d 8674 813c f27e 273d 9fb4 2abd
00000360: 2b29 16be aaa5 4a3c acdd 3dbc a2e3 a4bd
00000370: 8f55 0b3e fd7e 7e3c b0c5 b9bc 9fef 963b
00000380: 0cdf eabb 2aca a5bd f8fb 813d c3d6 1abd
00000390: e331 6abd 49f4 b3bd 018a bdbd b2c2 06be
000003a0: dee1 913d 03b6 963c 6711 a8bd 496e 92bb
000003b0: 1689 463d 81af 25bd 3afa 77bd 595e 7cbc
000003c0: 9e16 883d 695d 13bd 7cd7 c13c f1fe 46ba
000003d0: 484f 913d 1b3c 42be 795f 043c 2a67 8b3d
000003e0: 363c 7cbd f08b 3b3d 97ce e2bd 5dd5 a53d
000003f0: df94 0e3d 5772 8abd b15d a1bd b104 3cbd

action_model._continuous_distribution.log_sigma.bias f4 [2]
-0.19516087 -0.12008051
00000000: 40d8 47be c5ec f5bd

q1_network.network_body.observation_encoder.processors.0.normalizer.running_mean f4 [9]
-0.33575615 0.06910825 0.7646775 -0.6124355 0.03706628 -0.7742977 0.9041077 -0.5996176
4.8211017
00000000: 3be8 abbe a088 8d3d e8c1 433f 93c8 1cbf
00000010: d0d2 173d 6038 46bf 9a73 673f 8a80 19bf
00000020: 7746 9a40

q1_network.network_body.observation_encoder.processors.0.normalizer.running_variance f4 [9]
1.196725e+06 14.593973 985879.8 620917.7 59.18991 634370.75 384867.97 503077.6
580230.06
00000000: a815 9249 ea80 6941 7db1 7049 5b97 1749
00000010: 78c2 6c42 2ce0 1a49 7fec bb48 b3a4 f548
00000020: 61a8 0d49

q1_network.network_body.processors.0.normalizer.running_mean f4 [9]
-0.33575615 0.06910825 0.7646775 -0.6124355 0.03706628 -0.7742977 0.9041077 -0.5996176
4.8211017
00000000: 3be8 abbe a088 8d3d e8c1 433f 93c8 1cbf
00000010: d0d2 173d 6038 46bf 9a73 673f 8a80 19bf
00000020: 7746 9a40

q1_network.network_body.processors.0.normalizer.running_variance f4 [9]
1.196725e+06 14.593973 985879.8 620917.7 59.18991 634370.75 384867.97 503077.6
580230.06
00000000: a815 9249 ea80 6941 7db1 7049 5b97 1749
00000010: 78c2 6c42 2ce0 1a49 7fec bb48 b3a4 f548
00000020: 61a8 0d49

q1_network.network_body.linear_encoder.seq_layers.0.weight f4 [128, 11]
-0.56639016 -0.098879725 0.08468044 -0.21375681 0.22940847 -0.067385726 -0.024103984 0.3976782
0.23508826 -0.097553335 -0.18564527 0.27132016 0.27584672 -0.3729573 0.24742962 -0.22574076
-0.36588362 -0.18428525 -0.05343315 0.6443213 -0.4402185 -0.12214182 -0.42373437 -0.6688425
0.041467957 0.25776318 0.08606403 -0.12425931 0.063064985 -0.62835866 -0.114645764 0.36724028
0.18021141 -0.6110328 -0.27445087 -0.3436588 -0.26372212 0.15072487 0.09298391 0.22720304
-0.13050434 -0.30883178 0.1588232 -0.11704539 0.6035864 0.4356086 -0.15804087 0.23098862
-0.42123565 0.0023551674 0.16128393 0.34950814 0.35676223 0.12657082 -0.09547198 -0.07594114
-0.26949272 -0.75913656 -0.20972903 0.15216042 0.35972244 -0.08410917 0.50884545 -0.11364612
-0.21538994 0.05269518 -0.07187785 0.101398475 -0.07822112 -0.102480225 -0.61834335 0.19658269
0.025937432 0.18724816 -0.3537833 0.17624377 -0.08248208 0.4925269 -0.40179184 0.30903062
0.011852192 0.45702893 0.50395834 -0.32278797 0.053483777 0.38653725 0.016652688 0.386925
-0.3891086 0.3251408 -0.51062423 -0.4478718 -0.0097900275 0.2937713 0.36589798 0.29611665
0.3086472 -0.29035383 0.09171073 0.27730176 0.114724234 -0.43168652 -0.3742982 0.8680265
-0.2042697 0.046596378 -0.40017852 -0.08584641 0.04743712 0.11625089 0.29523912 0.017614052
0.37056643 0.44981486 0.2923897 0.2558717 -0.15427893 0.38107803 -0.17180835 0.70781755
-0.27135426 0.55010223 -0.08879943 -0.08828159 -0.71050346 -0.021279462 0.45112827 -0.40103647
-0.0065172403 -0.45310378 0.23805887 -0.37116528 -0.37572843 -0.43609774 -0.0743058 -0.2527645
0.18166268 0.14555839 0.25778982 0.21863885 -0.015372951 -0.7327286 0.67714065 0.2894612
-0.24345145 -0.35779366 -0.22136441 0.25743642 -0.2905246 -0.15120475 -0.39689034 -0.06519206
-0.23434371 0.06707727 -0.15539852 0.17159508 -0.11262338 0.41739005 0.41293848 0.19605638
-0.2785985 0.14445949 0.070518605 -0.19989315 -0.17612891 0.21885805 0.06156977 -0.18885872
-0.15069413 -0.3023131 0.09821943 0.027859285 -0.13775183 -0.44787708 -0.59286034 0.6648738
-0.08484497 0.10737969 0.13372506 -0.17214362 -0.03734674 -0.10159592 0.04846854 0.799687
-0.011096042 0.36953706 -0.15981966 -0.22939023 0.53835964 0.0031017961 0.74406785 -0.2448598
-0.1218645 0.21536313 -0.42879373 -0.03215335 0.20671366 -0.3971347 -0.018263206 -0.06531037
-0.09050884 0.29870543 0.29050672 -0.13361457 -0.08912589 0.31629777 0.5732312 -0.10918281
0.48175874 -0.08154046 -0.17745052 -0.13442266 0.6341413 -0.14598183 -0.18034495 0.465433
-0.034181014 -0.08301719 -0.35317636 0.017826509 -0.22003867 0.14687018 -0.16351578 -0.20189163
0.09736592 0.45379183 0.34055138 0.4944088 -0.2496676 0.14604303 0.023781536 0.32938388
0.22933452 -0.19687085 -0.16011466 0.2776106 -0.14885391 -0.033317868 -0.45765513 0.43358147
0.39751285 0.03393219 0.5956501 -0.16501008 0.18098769 0.44932896 0.052287515 0.22435221
-0.016626738 0.0060708113 0.31583738 0.056630455 0.043670055 -0.3131928 0.3544198 0.2592386
00000000: f2fe 10bf 7481 cabd f06c ad3d 11e3 5abe
00000010: 0eea 6a3e 8701 8abd b875 c5bc 7a9c cb3e
00000020: faba 703e 0bca c7bd cb19 3ebe 7aea 8a3e
00000030: c83b 8d3e 42f4 bebe 315e 7d3e 9628 67be
00000040: 1955 bbbe 46b5 3cbe b8dc 5abd 3ef2 243f
00000050: 5264 e1be 7e25 fabd b6f3 d8be 4339 2bbf
00000060: 4eda 293d 89f9 833e 5742 b03d aa7b febd
00000070: 3728 813d 1ddc 20bf 66cb eabd eb06 bc3e
00000080: 5789 383e a56c 1cbf d384 8cbe 0cf4 afbe
00000090: 9606 87be 9f57 1a3e 596e be3d eaa7 683e
000000a0: eea2 05be 331f 9ebe 8da2 223e 7eb5 efbd
000000b0: a384 1a3f 1708 df3e 77d5 21be 4888 6c3e
000000c0: 33ac d7be 2759 1a3b 9d27 253e bbf2 b23e
000000d0: 8aa9 b63e c89b 013e d086 c3bd 0787 9bbd
000000e0: f3fa 89be c656 42bf 35c3 56be f1cf 1b3e
000000f0: 8a2d b83e 6e41 acbd b243 023f 4cbf e8bd
00000100: 2e8f 5cbe e7d6 573d b234 93bd 01aa cf3d
00000110: 6532 a0bd 27e1 d1bd c04b 1ebf f94c 493e
00000120: bd7a d43c fbbd 3f3e 1623 b5be 3f79 343e
00000130: 5dec a8bd 7c2c fc3e a9b7 cdbe 4339 9e3e
00000140: b22f 423c b2ff e93e 6a03 013f 7744 a5be
00000150: ce11 5b3d 36e8 c53e 386b 883c 091b c63e
00000160: 3e39 c7be db78 a63e 45b8 02bf 744f e5be
00000170: 5a66 20bc 3169 963e fb56 bb3e 9a9c 973e
00000180: 0107 9e3e 42a9 94be d6d2 bb3d 7ffa 8d3e
00000190: 8af4 ea3d 0406 ddbe 03a4 bfbe fc36 5e3f
000001a0: 142c 51be d8db 3e3d 33e4 ccbe 3ed0 afbd
000001b0: 6d4d 423d f214 ee3d 9529 973e 584b 903c
000001c0: e2ba bd3e 224e e63e 1ab4 953e 9e01 833e
000001d0: 4cfb 1dbe a91c c33e 87ee 2fbe 8833 353f
000001e0: f2ee 8abe 80d3 0c3f 7adc b5bd facc b4bd
000001f0: 8ee3 35bf 4452 aebc 49fa e63e a754 cdbe
00000200: 938e d5bb 38fd e7be b4c5 733e 6009 bebe
00000210: 7a5f c0be 3448 dfbe a42d 98bd 596a 81be
00000220: c805 3a3e 420d 153e 07fd 833e dde2 5f3e
00000230: d4de 7bbc 1a94 3bbf 1759 2d3f 4234 943e
00000240: 564b 79be bb30 b7be 5aad 62be b5ce 833e
00000250: a4bf 94be 6bd5 1abe 3635 cbbe 6a83 85bd
00000260: ccf7 6fbe cf5f 893d ca20 1fbe 9fb6 2f3e
00000270: 16a7 e6bd 26b4 d53e ac6c d33e 01c3 483e
00000280: 76a4 8ebe 30ed 133e 0f6c 903d cab0 4cbe
00000290: 235b 34be 531c 603e 9530 7c3d 2e64 41be
000002a0: 904f 1abe c8c8 9abe 4527 c93d 2839 e43c
000002b0: d10e 0dbe 2550 e5be b2c5 17bf 2b35 2a3f
000002c0: 33c3 adbd e2e9 db3d 39ef 083e 6b46 30be
000002d0: e5f8 18bd 8611 d0bd f386 463d 4ab8 4c3f
000002e0: 2ccc 35bc f633 bd3e c4a7 23be 46e5 6abe
000002f0: f0d1 093f 8147 4b3b 3b7b 3e3f 87bc 7abe
00000300: 1894 f9bd 2788 5c3e da8a dbbe 3bb3 03bd
00000310: bfac 533e 3d55 cbbe b89c 95bc 71c1 85bd
00000320: b35c b9bd ebef 983e 4cbd 943e 42d2 08be
00000330: a287 b6bd c8f1 a13e 48bf 123f 3d9b dfbd
00000340: 15a9 f63e affe a6bd 97b5 35be 18a6 09be
00000350: 1657 223f 437c 15be 59ac 38be 3c4d ee3e
00000360: 6401 0cbd eb04 aabd 88d3 b4be e608 923c
00000370: d151 61be 2365 163e ae70 27be aebc 4ebe
00000380: c967 c73d 6757 e83e c05c ae3e 2623 fd3e
00000390: dda8 7fbe 4e8c 153e 7fd1 c23c 01a5 a83e
000003a0: abd6 6a3e 8398 49be 19f5 23be fa22 8e3e
000003b0: 296d 18be 5178 08bd c651 eabe 64fe dd3e
000003c0: ce86 cb3e 7bfc 0a3d 867c 183f 67f8 28be
000003d0: d654 393e 720e e63e 6f2b 563d 96bc 653e
000003e0: cc34 88bc a8ed c63b 70b5 a13e 56f5 673d
000003f0: 5fdf 323d cf5a a0be 8376 b53e ecba 843e

q1_network.network_body.linear_encoder.seq_layers.0.bias f4 [128]
-0.1430844 0.076697305 0.23296677 -0.104884535 0.13142033 0.10365537 0.07984342 -0.039516963
0.0747191 0.23787197 0.11678234 0.097812474 -0.22408213 0.22581308 0.0375691 0.20794499
0.17244516 0.23155117 0.004060399 0.27993754 0.1608408 0.22382262 0.10290763 -0.20798908
0.21958676 -0.17503676 -0.11424763 0.23522812 0.19921225 0.017856618 0.24372235 0.13671654
0.051354583 0.19139758 -0.031149996 0.22483075 0.15329391 0.16515473 0.13373873 0.1778092
0.18078601 0.22195072 0.25342587 0.1828629 -0.1304035 0.15683335 0.29663187 -0.032206997
0.08987536 0.27502427 0.07320568 0.16506082 0.22378887 0.17693691 -0.18243366 -0.071284026
0.20175368 0.22234938 0.23475544 0.25633854 0.17770563 0.20667508 0.09998198 -0.10410136
-0.23130918 0.32920358 0.09344456 0.011120774 -0.18754363 -0.11825859 0.2109364 0.2733167
0.2042959 0.26248708 -0.14075659 -0.14579718 0.29007068 0.2114675 0.09385314 0.103799745
-0.020244785 0.1717384 -0.1290573 0.21068159 0.2556521 0.072159275 0.05444542 0.05452046
0.1454266 0.11439673 -0.11686467 -0.06948162 -0.17733072 0.15384306 0.10797827 0.19463558
-0.11291126 0.08389834 -0.06505222 0.2315175 0.15679547 0.27278775 -0.10638926 0.13452621
0.19706243 0.17204398 0.11464392 0.27044034 0.17134896 -0.18556827 0.14414094 0.20167917
0.12147326 0.19732562 0.14500591 -0.001174164 0.012331613 0.16181538 0.071629256 0.16061503
0.23710516 0.17908818 0.2409731 0.27896997 0.22776766 0.19829203 0.17246005 0.21204309
00000000: b884 12be 7a13 9d3d d78e 6e3e b4cd d6bd
00000010: 0d93 063e 4449 d43d f284 a33d 8adc 21bd
00000020: 5406 993d b694 733e 942b ef3d e851 c83d
00000030: c975 65be 8b3b 673e 0ee2 193d 88ef 543e
00000040: 7795 303e c01b 6d3e 180d 853b f953 8f3e
00000050: 73b3 243e c231 653e 3cc1 d23d 17fb 54be
00000060: 5adb 603e d63c 33be a9fa e9bd a4df 703e
00000070: 4cfe 4b3e 0b48 923c 5a92 793e 6cff 0b3e
00000080: 2f59 523d bafd 433e 472e ffbc 083a 663e
00000090: 14f9 1c3e 521e 293e cef2 083e 9d13 363e
000000a0: f81f 393e 0d47 633e 09c1 813e 6940 3b3e
000000b0: 7f88 05be ec98 203e 22e0 973e 7ceb 03bd
000000c0: 9310 b83d fbcf 8c3e dcec 953d b405 293e
000000d0: e928 653e f32e 353e e4cf 3abe 5cfd 91bd
000000e0: 8498 4e3e 8eaf 633e bb63 703e ce3e 833e
000000f0: 77f8 353e a2a2 533e 5ac3 cc3d 1833 d5bd
00000100: 50dc 6cbe 5f8d a83e dd5f bf3d e833 363c
00000110: 700b 40be 8f31 f2bd b6ff 573e 2bf0 8b3e
00000120: f232 513e b564 863e 7f22 10be db4b 15be
00000130: 2584 943e f08a 583e 1336 c03d f694 d43d
00000140: 64d8 a5bc 31dc 2f3e 9927 04be eabc 573e
00000150: d5e4 823e 3ec8 933d 2902 5f3d d950 5f3d
00000160: b6ea 143e d548 ea3d be56 efbd 614c 8ebd
00000170: 2f96 35be 0989 1d3e b623 dd3d 8d4e 473e
00000180: 053e e7bd e5d2 ab3d 193a 85bd ec12 6d3e
00000190: fe8e 203e d6aa 8b3e 9de2 d9bd 3dc1 093e
000001a0: bcca 493e 4c2c 303e 6eca ea3d 2877 8a3e
000001b0: 1a76 2f3e 9c05 3ebe af99 133e fc84 4e3e
000001c0: f9c6 f83d ba0f 4a3e 6e7c 143e 68e6 99ba
000001d0: 890a 4a3c eeb2 253e 5cb2 923d 4478 243e
000001e0: b2cb 723e e462 373e a7c1 763e 27d5 8e3e
000001f0: ed3b 693e 110d 4b3e 5e99 303e d321 593e

q1_network.network_body.linear_encoder.seq_layers.2.weight f4 [128, 128]
-0.12708206 0.02040894 -0.21331078 0.003884491 -0.20186931 -0.18687315 0.14239354 -0.036260623
-0.12342168 0.037440337 -0.18459877 0.004312488 -0.08416794 0.063240364 -0.0022946035 0.03356539
-0.017857328 -0.0467971 -0.016951483 0.019534307 0.06330854 -0.12452772 -0.0065899226 -0.12024467
-0.04763875 0.27322897 -0.1199146 -0.068300605 -0.07707845 -0.15956256 -0.1799223 -0.15511484
0.14600083 -0.14275788 0.089260295 -0.16969809 0.0287342 0.0073731826 -0.024469491 0.16398616
-0.19681406 -0.015278865 0.09717474 0.14260982 0.042617142 -0.20897228 -0.11799408 -0.034019224
0.07206101 -0.16857393 -0.035499796 -0.16574353 -0.051002678 -0.062056974 0.110926084 0.123257846
-0.053386025 -0.016218407 -0.06440366 -0.23659302 -0.18910453 -0.28578842 0.05466322 -0.15149614
0.05220296 -0.0852173 0.0047863033 0.0039923377 -0.054332405 0.14474511 0.0840621 -0.25990102
-0.0784647 0.1670853 -0.08055063 0.15958215 -0.18466432 0.10992539 -0.02770675 -0.019252766
-0.028844908 0.053269837 0.118499555 -0.20805202 0.028612668 -0.23288164 -0.011298107 -0.07953028
-0.43823847 -0.09870769 -0.06189727 -0.13595454 0.0550502 -0.0655905 0.05113353 -0.078205444
-0.027103318 -0.027460469 -0.09481202 -0.26642215 -0.042484287 -0.2275327 -0.10153294 0.018744107
0.022528997 0.022960087 -0.2795196 -0.074779674 0.12349204 0.10776858 -0.040743824 -0.17146553
-0.12194342 -0.14136608 0.16813247 -0.0559409 -0.093176834 -0.014159713 -0.19052804 0.055231832
-0.1441968 -0.08740252 0.08102641 -0.2549545 -0.15707365 0.012421253 0.07799515 0.021966279
-0.0204717 -0.1471057 0.06253035 -0.07514188 -0.22786546 0.1578112 0.0961028 -0.19963107
0.019019956 0.05796986 0.0826392 0.048096526 0.065548085 0.0071118013 -0.038924932 0.055004045
0.03607099 0.038769543 -0.03695252 0.07003215 -0.11626487 -0.16769414 -0.016079657 -0.20332108
0.107271224 -0.08769752 -0.23862033 -0.114876874 -0.07416091 -0.12694944 0.04299578 -0.029327983
-0.06305455 0.09655934 0.0029830947 -0.010292478 0.0055438792 0.114343785 -0.18683879 0.034747176
-0.07265167 -0.07563785 0.016401991 0.09009187 0.009365821 -0.11512866 0.034402087 -0.12584966
-0.011930815 -0.09331889 0.026690857 -0.037549376 -0.029467124 0.033909384 -0.013121303 -0.0586667
0.24410114 0.05334158 -0.15251392 0.06295493 0.11847243 -0.21706665 0.017104521 -0.001741981
-0.09570035 0.027180953 -0.059807193 -0.08077883 -0.022356676 0.09426155 0.30055165 -0.06248304
0.014691745 -0.16890208 0.17351487 -0.028043214 -0.13627079 0.05266226 -0.023544839 -0.027614007
-0.018143613 -0.052409213 0.007518951 -0.013487611 0.019217286 0.0045149536 -0.17225009 0.07314199
0.0627146 -0.122145124 0.04972675 0.026428055 -0.09311292 -0.082382426 -0.014869109 -0.0057723746
-0.113710284 -0.10720993 -0.15619417 -0.07757758 0.09673912 -0.09043704 0.029382974 -0.07577069
0.020186925 0.054138437 0.22556877 -0.0056796237 0.04251428 -0.016597362 -0.06769297 -0.16214073
0.13627407 -0.07938098 0.024224896 -0.09643544 0.070500426 0.042788308 -0.0477146 -0.023234876
-0.047053825 -0.13275899 0.1561557 -0.0048976657 -0.017365852 0.086761095 0.10003105 -0.0713655
00000000: cd21 02be a630 a73c 246e 5abe f292 7e3b
00000010: d4b6 4ebe ad5b 3fbe 9dcf 113e 0586 14bd
00000020: 81c4 fcbd 0a5b 193d 7607 3dbe c54f 8d3b
00000030: 3e60 acbd 2a84 813d 0f61 16bb dd7b 093d
00000040: 8849 92bc 51ae 3fbd d6dd 8abc 6906 a03c
00000050: e8a7 813d 6408 ffbd 47f0 d7bb d642 f6bd
00000060: da20 43bd abe4 8b3e c995 f5bd 30e1 8bbd
00000070: 4edb 9dbd 5e64 23be 8d3d 38be 6dd6 1ebe
00000080: 3e81 153e 1f2f 12be 1ace b63d 56c5 2dbe
00000090: fc63 eb3c bd9a f13b 3e74 c8bc fdeb 273e
000000a0: a089 49be 3454 7abc 8d03 c73d 4f08 123e
000000b0: 508f 2e3d d4fc 55be e1a6 f1bd be57 0bbd
000000c0: b994 933d a59e 2cbe 3c68 11bd acb8 29be
000000d0: 2fe8 50bd 742f 7ebd 372d e33d 9c6e fc3d
000000e0: 4eab 5abd 77dc 84bc 11e6 83bd 7145 72be
000000f0: 9ea4 41be dc52 92be 8ae6 5f3d ce21 1bbe
00000100: c5d2 553d 6886 aebd 6cd6 9c3b 28d2 823b
00000110: a88b 5ebd 1038 143e c028 ac3d bf11 85be
00000120: 1ab2 a0bd 6918 2b3e bbf7 a4bd 8169 233e
00000130: a518 3dbe 9020 e13d 44f9 e2bc fab7 9dbc
00000140: 284c ecbc 7931 5a3d e5af f23d 970b 55be
00000150: 1d65 ea3c 8678 6ebe b21b 39bc c5e0 a2bd
00000160: cb60 e0be 4227 cabd fe87 7dbd ab37 0bbe
00000170: 527c 613d 5054 86bd 6471 513d 2d2a a0bd
00000180: c707 debc c7f4 e0bc ce2c c2bd 7c68 88be
00000190: 0104 2ebd 55fe 68be 81f0 cfbd 3e8d 993c
000001a0: bb8e b83c cb16 bc3c 311d 8fbe 1626 99bd
000001b0: 65e9 fc3d c6b5 dc3d ffe2 26bd a994 2fbe
000001c0: 79bd f9bd 45c2 10be eb2a 2c3e 4922 65bd
000001d0: 7fd3 bebd 24fe 67bc c819 43be c63a 623d
000001e0: 53a8 13be 1800 b3bd 2df1 a53d 6589 82be
000001f0: ead7 20be 8382 4b3c ecbb 9f3d a0f2 b33c
00000200: 44b4 a7bc e0a2 16be ea0f 803d fce3 99bd
00000210: 9055 69be 4299 213e 8bd1 c43d 166c 4cbe
00000220: bdcf 9b3c ce71 6d3d be3e a93d dd00 453d
00000230: 133e 863d 1d0a e93b c06f 1fbd ec4b 613d
00000240: 2dbf 133d d0cc 1e3d 875b 17bd 046d 8f3d
00000250: 471c eebd 03b8 2bbe 7cb9 83bc 6733 50be
00000260: 04b1 db3d c29a b3bd e358 74be 9144 ebbd
00000270: ade1 97bd 09ff 01be 581c 303d 3d41 f0bc
00000280: be22 81bd e7c0 c53d 0680 433b c8a1 28bc
00000290: 6ea9 b53b 132d ea3d ab52 3fbe 0e53 0e3d
000002a0: 66ca 94bd 04e8 9abd 785d 863c 1682 b83d
000002b0: 1a73 193c 93c8 ebbd 34e9 0c3d bcde 00be
000002c0: 7779 43bc f91d bfbd c9a6 da3c 60cd 19bd
000002d0: 0a65 f1bc 91e4 0a3d bcfa 56bc 7e4c 70bd
000002e0: a6f5 793e b37c 5a3d 9c2c 1cbe 84ee 803d
000002f0: aca1 f23d b846 5ebe c81e 8c3c 2f53 e4ba
00000300: 8cfe c3bd 97aa de3c 63f8 74bd 5f6f a5bd
00000310: 5925 b7bc 330c c13d e8e1 993e 37ee 7fbd
00000320: a5b5 703c abf4 2cbe e2ad 313e e2ba e5bc
00000330: 928a 0bbe 62b4 573d 1be1 c0bc c536 e2bc
00000340: eaa1 94bc 0bab 56bd 8861 f63b 24fb 5cbc
00000350: 926d 9d3c 2df2 933b 5462 30be 78cb 953d
00000360: 8370 803d 3927 fabd 47ae 4b3d a67f d83c
00000370: fdb1 bebd 1eb8 a8bd 909d 73bc 3026 bdbb
00000380: f0e0 e8bd e190 dbbd 5df1 1fbe ffe0 9ebd
00000390: 291f c63d 0e37 b9bd 90b4 f03c aa2d 9bbd
000003a0: 0d5f a53c 44c0 5d3d 80fb 663e 231c babb
000003b0: 7423 2e3d 31f7 87bc 9da2 8abd 3808 26be
000003c0: 6e8b 0b3e 7f92 a2bd 4a73 c63c f27f c5bd
000003d0: 8762 903d cb42 2f3d 6270 43bd 1157 bebc
000003e0: 83bb 40bd f9f1 07be 48e7 1f3e 997c a0bb
000003f0: d542 8ebc cdaf b13d 14dd cc3d 1328 92bd
